{
  "nodes": [
    {
      "op": "null", 
      "name": "data", 
      "attrs": {"__shape__": "(0, 1, 28, 28)"}, 
      "inputs": []
    }, 
    {
      "op": "null", 
      "name": "_data_mean_", 
      "attrs": {
        "__init__": "[\"myconstant\", {\"value\": [[[… ", 
        "__shape__": "(1, 28, 28)"
      }, 
      "inputs": []
    }, 
    {
      "op": "BlockGrad", 
      "name": "blockgrad0", 
      "inputs": [[1, 0, 0]]
    }, 
    {
      "op": "broadcast_sub", 
      "name": "broadcast_sub0", 
      "inputs": [[0, 0, 0], [2, 0, 0]]
    }, 
    {
      "op": "null", 
      "name": "_data_std_", 
      "attrs": {
        "__init__": "[\"myconstant\", {\"value\": [[[… ", 
        "__shape__": "(1, 28, 28)"
      }, 
      "inputs": []
    }, 
    {
      "op": "BlockGrad", 
      "name": "blockgrad1", 
      "inputs": [[4, 0, 0]]
    }, 
    {
      "op": "broadcast_div", 
      "name": "broadcast_div0", 
      "inputs": [[3, 0, 0], [5, 0, 0]]
    }, 
    {
      "op": "null", 
      "name": "conv1__weight", 
      "attrs": {
        "kernel": "(5, 5)", 
        "no_bias": "False", 
        "num_filter": "20", 
        "stride": "(1, 1)"
      }, 
      "inputs": []
    }, 
    {
      "op": "null", 
      "name": "conv1__bias", 
      "attrs": {
        "kernel": "(5, 5)", 
        "no_bias": "False", 
        "num_filter": "20", 
        "stride": "(1, 1)"
      }, 
      "inputs": []
    }, 
    {
      "op": "Convolution", 
      "name": "conv1_", 
      "attrs": {
        "kernel": "(5, 5)", 
        "no_bias": "False", 
        "num_filter": "20", 
        "stride": "(1, 1)"
      }, 
      "inputs": [[6, 0, 0], [7, 0, 0], [8, 0, 0]]
    }, 
    {
      "op": "Pooling", 
      "name": "pool1_", 
      "attrs": {
        "kernel": "(2, 2)", 
        "pool_type": "max", 
        "stride": "(2, 2)"
      }, 
      "inputs": [[9, 0, 0]]
    }, 
    {
      "op": "null", 
      "name": "conv2__weight", 
      "attrs": {
        "kernel": "(5, 5)", 
        "no_bias": "False", 
        "num_filter": "50", 
        "stride": "(1, 1)"
      }, 
      "inputs": []
    }, 
    {
      "op": "null", 
      "name": "conv2__bias", 
      "attrs": {
        "kernel": "(5, 5)", 
        "no_bias": "False", 
        "num_filter": "50", 
        "stride": "(1, 1)"
      }, 
      "inputs": []
    }, 
    {
      "op": "Convolution", 
      "name": "conv2_", 
      "attrs": {
        "kernel": "(5, 5)", 
        "no_bias": "False", 
        "num_filter": "50", 
        "stride": "(1, 1)"
      }, 
      "inputs": [[10, 0, 0], [11, 0, 0], [12, 0, 0]]
    }, 
    {
      "op": "Pooling", 
      "name": "pool2_", 
      "attrs": {
        "kernel": "(2, 2)", 
        "pool_type": "max", 
        "stride": "(2, 2)"
      }, 
      "inputs": [[13, 0, 0]]
    }, 
    {
      "op": "Flatten", 
      "name": "flatten0", 
      "inputs": [[14, 0, 0]]
    }, 
    {
      "op": "null", 
      "name": "fc2__weight", 
      "attrs": {
        "no_bias": "False", 
        "num_hidden": "500"
      }, 
      "inputs": []
    }, 
    {
      "op": "null", 
      "name": "fc2__bias", 
      "attrs": {
        "no_bias": "False", 
        "num_hidden": "500"
      }, 
      "inputs": []
    }, 
    {
      "op": "FullyConnected", 
      "name": "fc2_", 
      "attrs": {
        "no_bias": "False", 
        "num_hidden": "500"
      }, 
      "inputs": [[15, 0, 0], [16, 0, 0], [17, 0, 0]]
    }, 
    {
      "op": "Activation", 
      "name": "relu2_", 
      "attrs": {"act_type": "relu"}, 
      "inputs": [[18, 0, 0]]
    }, 
    {
      "op": "null", 
      "name": "fc3__weight", 
      "attrs": {
        "no_bias": "False", 
        "num_hidden": "10"
      }, 
      "inputs": []
    }, 
    {
      "op": "null", 
      "name": "fc3__bias", 
      "attrs": {
        "no_bias": "False", 
        "num_hidden": "10"
      }, 
      "inputs": []
    }, 
    {
      "op": "FullyConnected", 
      "name": "fc3_", 
      "attrs": {
        "no_bias": "False", 
        "num_hidden": "10"
      }, 
      "inputs": [[19, 0, 0], [20, 0, 0], [21, 0, 0]]
    }, 
    {
      "op": "null", 
      "name": "softmax_label", 
      "inputs": []
    }, 
    {
      "op": "SoftmaxOutput", 
      "name": "softmax", 
      "inputs": [[22, 0, 0], [23, 0, 0]]
    }
  ], 
  "arg_nodes": [
    0, 
    1, 
    4, 
    7, 
    8, 
    11, 
    12, 
    16, 
    17, 
    20, 
    21, 
    23
  ], 
  "node_row_ptr": [
    0, 
    1, 
    2, 
    3, 
    4, 
    5, 
    6, 
    7, 
    8, 
    9, 
    10, 
    12, 
    13, 
    14, 
    15, 
    17, 
    18, 
    19, 
    20, 
    21, 
    22, 
    23, 
    24, 
    25, 
    26, 
    27
  ], 
  "heads": [[24, 0, 0]], 
  "attrs": {"mxnet_version": ["int", 10800]}
}