{
  "nodes": [
    {
      "op": "null", 
      "name": "data0", 
      "attrs": {"__profiler_scope__": "<unk>:"}, 
      "inputs": []
    }, 
    {
      "op": "null", 
      "name": "word_embed.weight", 
      "attrs": {
        "__dtype__": "0", 
        "__init__": "[\"truncnorm\", {}]", 
        "__lr_mult__": "1.0", 
        "__profiler_scope__": "<unk>:", 
        "__shape__": "(50265, 768)", 
        "__storage_type__": "0", 
        "__wd_mult__": "1.0"
      }, 
      "inputs": []
    }, 
    {
      "op": "Embedding", 
      "name": "node_0", 
      "attrs": {
        "__profiler_scope__": "<unk>:", 
        "dtype": "float32", 
        "input_dim": "50265", 
        "output_dim": "768", 
        "sparse_grad": "False"
      }, 
      "inputs": [[0, 0, 0], [1, 0, 0]]
    }, 
    {
      "op": "null", 
      "name": "pos_embed._embed.weight", 
      "attrs": {
        "__dtype__": "0", 
        "__lr_mult__": "1.0", 
        "__profiler_scope__": "<unk>:", 
        "__shape__": "(512, 768)", 
        "__storage_type__": "0", 
        "__wd_mult__": "1.0"
      }, 
      "inputs": []
    }, 
    {
      "op": "_contrib_arange_like", 
      "name": "node_1", 
      "attrs": {
        "__profiler_scope__": "<unk>:", 
        "axis": "1"
      }, 
      "inputs": [[0, 0, 0]]
    }, 
    {
      "op": "take", 
      "name": "node_2", 
      "attrs": {
        "axis": "0", 
        "mode": "clip"
      }, 
      "inputs": [[3, 0, 0], [4, 0, 0]]
    }, 
    {
      "op": "expand_dims", 
      "name": "node_3", 
      "attrs": {
        "__profiler_scope__": "<unk>:", 
        "axis": "0"
      }, 
      "inputs": [[5, 0, 0]]
    }, 
    {
      "op": "_npi_add", 
      "name": "node_4", 
      "inputs": [[2, 0, 0], [6, 0, 0]]
    }, 
    {
      "op": "null", 
      "name": "embed_ln.gamma", 
      "attrs": {
        "__dtype__": "0", 
        "__init__": "ones", 
        "__lr_mult__": "1.0", 
        "__profiler_scope__": "<unk>:", 
        "__shape__": "(768,)", 
        "__storage_type__": "0", 
        "__wd_mult__": "1.0"
      }, 
      "inputs": []
    }, 
    {
      "op": "null", 
      "name": "embed_ln.beta", 
      "attrs": {
        "__dtype__": "0", 
        "__init__": "zeros", 
        "__lr_mult__": "1.0", 
        "__profiler_scope__": "<unk>:", 
        "__shape__": "(768,)", 
        "__storage_type__": "0", 
        "__wd_mult__": "1.0"
      }, 
      "inputs": []
    }, 
    {
      "op": "LayerNorm", 
      "name": "node_5", 
      "attrs": {
        "__profiler_scope__": "<unk>:", 
        "axis": "-1", 
        "eps": "1e-05"
      }, 
      "inputs": [[7, 0, 0], [8, 0, 0], [9, 0, 0]]
    }, 
    {
      "op": "Dropout", 
      "name": "node_6", 
      "attrs": {
        "__profiler_scope__": "<unk>:", 
        "axes": "()", 
        "cudnn_off": "False", 
        "p": "0.1"
      }, 
      "inputs": [[10, 0, 0]]
    }, 
    {
      "op": "null", 
      "name": "encoder.all_layers.0.attn_qkv.weight", 
      "attrs": {
        "__dtype__": "0", 
        "__init__": "[\"truncnorm\", {}]", 
        "__lr_mult__": "1.0", 
        "__profiler_scope__": "<unk>:", 
        "__shape__": "(2304, 768)", 
        "__storage_type__": "0", 
        "__wd_mult__": "1.0"
      }, 
      "inputs": []
    }, 
    {
      "op": "null", 
      "name": "encoder.all_layers.0.attn_qkv.bias", 
      "attrs": {
        "__dtype__": "0", 
        "__init__": "[\"zero\", {}]", 
        "__lr_mult__": "1.0", 
        "__profiler_scope__": "<unk>:", 
        "__shape__": "(2304,)", 
        "__storage_type__": "0", 
        "__wd_mult__": "1.0"
      }, 
      "inputs": []
    }, 
    {
      "op": "FullyConnected", 
      "name": "node_17", 
      "attrs": {
        "__profiler_scope__": "<unk>:", 
        "flatten": "False", 
        "no_bias": "False", 
        "num_hidden": "2304"
      }, 
      "inputs": [[11, 0, 0], [12, 0, 0], [13, 0, 0]]
    }, 
    {
      "op": "_split_v2", 
      "name": "node_18", 
      "attrs": {
        "axis": "-1", 
        "indices": "[]", 
        "sections": "3", 
        "squeeze_axis": "0"
      }, 
      "inputs": [[14, 0, 0]]
    }, 
    {
      "op": "_npx_reshape", 
      "name": "node_19", 
      "attrs": {
        "__profiler_scope__": "<unk>:", 
        "newshape": "(-2, -2, 12, -1)"
      }, 
      "inputs": [[15, 0, 0]]
    }, 
    {
      "op": "SwapAxis", 
      "name": "node_24", 
      "attrs": {
        "__profiler_scope__": "<unk>:", 
        "dim1": "1", 
        "dim2": "2"
      }, 
      "inputs": [[16, 0, 0]]
    }, 
    {
      "op": "_npx_reshape", 
      "name": "node_20", 
      "attrs": {
        "__profiler_scope__": "<unk>:", 
        "newshape": "(-2, -2, 12, -1)"
      }, 
      "inputs": [[15, 1, 0]]
    }, 
    {
      "op": "SwapAxis", 
      "name": "node_25", 
      "attrs": {
        "__profiler_scope__": "<unk>:", 
        "dim1": "1", 
        "dim2": "2"
      }, 
      "inputs": [[18, 0, 0]]
    }, 
    {
      "op": "batch_dot", 
      "name": "node_26", 
      "attrs": {
        "__profiler_scope__": "<unk>:", 
        "transpose_b": "True"
      }, 
      "inputs": [[17, 0, 0], [19, 0, 0]]
    }, 
    {
      "op": "_contrib_arange_like", 
      "name": "node_8", 
      "attrs": {
        "__profiler_scope__": "<unk>:", 
        "axis": "1"
      }, 
      "inputs": [[11, 0, 0]]
    }, 
    {
      "op": "_npx_reshape", 
      "name": "node_9", 
      "attrs": {
        "__profiler_scope__": "<unk>:", 
        "newshape": "(1, 1, -1)"
      }, 
      "inputs": [[21, 0, 0]]
    }, 
    {
      "op": "null", 
      "name": "data1", 
      "attrs": {"__profiler_scope__": "<unk>:"}, 
      "inputs": []
    }, 
    {
      "op": "Cast", 
      "name": "node_7", 
      "attrs": {
        "__profiler_scope__": "<unk>:", 
        "dtype": "float32"
      }, 
      "inputs": [[23, 0, 0]]
    }, 
    {
      "op": "_npx_reshape", 
      "name": "node_10", 
      "attrs": {
        "__profiler_scope__": "<unk>:", 
        "newshape": "(-2, 1, 1)"
      }, 
      "inputs": [[24, 0, 0]]
    }, 
    {
      "op": "_npi_less", 
      "name": "node_11", 
      "inputs": [[22, 0, 0], [25, 0, 0]]
    }, 
    {
      "op": "_npx_reshape", 
      "name": "node_12", 
      "attrs": {
        "__profiler_scope__": "<unk>:", 
        "newshape": "(1, -1, 1)"
      }, 
      "inputs": [[21, 0, 0]]
    }, 
    {
      "op": "_npx_reshape", 
      "name": "node_13", 
      "attrs": {
        "__profiler_scope__": "<unk>:", 
        "newshape": "(-2, 1, 1)"
      }, 
      "inputs": [[24, 0, 0]]
    }, 
    {
      "op": "_npi_less", 
      "name": "node_14", 
      "inputs": [[27, 0, 0], [28, 0, 0]]
    }, 
    {
      "op": "_npi_multiply", 
      "name": "node_15", 
      "inputs": [[26, 0, 0], [29, 0, 0]]
    }, 
    {
      "op": "Cast", 
      "name": "node_16", 
      "attrs": {
        "__profiler_scope__": "<unk>:", 
        "dtype": "bool"
      }, 
      "inputs": [[30, 0, 0]]
    }, 
    {
      "op": "expand_dims", 
      "name": "node_22", 
      "attrs": {
        "__profiler_scope__": "<unk>:", 
        "axis": "1"
      }, 
      "inputs": [[31, 0, 0]]
    }, 
    {
      "op": "Cast", 
      "name": "node_23", 
      "attrs": {
        "__profiler_scope__": "<unk>:", 
        "dtype": "bool"
      }, 
      "inputs": [[32, 0, 0]]
    }, 
    {
      "op": "Cast", 
      "name": "node_27", 
      "attrs": {
        "__profiler_scope__": "<unk>:", 
        "dtype": "bool"
      }, 
      "inputs": [[33, 0, 0]]
    }, 
    {
      "op": "masked_softmax", 
      "name": "node_28", 
      "attrs": {
        "__profiler_scope__": "<unk>:", 
        "axis": "-1", 
        "temperature": "8.0"
      }, 
      "inputs": [[20, 0, 0], [34, 0, 0]]
    }, 
    {
      "op": "Dropout", 
      "name": "node_29", 
      "attrs": {
        "__profiler_scope__": "<unk>:", 
        "p": "0.1"
      }, 
      "inputs": [[35, 0, 0]]
    }, 
    {
      "op": "_npx_reshape", 
      "name": "node_21", 
      "attrs": {
        "__profiler_scope__": "<unk>:", 
        "newshape": "(-2, -2, 12, -1)"
      }, 
      "inputs": [[15, 2, 0]]
    }, 
    {
      "op": "SwapAxis", 
      "name": "node_30", 
      "attrs": {
        "__profiler_scope__": "<unk>:", 
        "dim1": "1", 
        "dim2": "2"
      }, 
      "inputs": [[37, 0, 0]]
    }, 
    {
      "op": "batch_dot", 
      "name": "node_31", 
      "attrs": {"__profiler_scope__": "<unk>:"}, 
      "inputs": [[36, 0, 0], [38, 0, 0]]
    }, 
    {
      "op": "_npi_transpose", 
      "name": "node_32", 
      "attrs": {"axes": "[0,2,1,3]"}, 
      "inputs": [[39, 0, 0]]
    }, 
    {
      "op": "_npx_reshape", 
      "name": "node_33", 
      "attrs": {
        "__profiler_scope__": "<unk>:", 
        "newshape": "(-2, -2, -1)"
      }, 
      "inputs": [[40, 0, 0]]
    }, 
    {
      "op": "null", 
      "name": "encoder.all_layers.0.attention_proj.weight", 
      "attrs": {
        "__dtype__": "0", 
        "__init__": "[\"truncnorm\", {}]", 
        "__lr_mult__": "1.0", 
        "__profiler_scope__": "<unk>:", 
        "__shape__": "(768, 768)", 
        "__storage_type__": "0", 
        "__wd_mult__": "1.0"
      }, 
      "inputs": []
    }, 
    {
      "op": "null", 
      "name": "encoder.all_layers.0.attention_proj.bias", 
      "attrs": {
        "__dtype__": "0", 
        "__init__": "[\"zero\", {}]", 
        "__lr_mult__": "1.0", 
        "__profiler_scope__": "<unk>:", 
        "__shape__": "(768,)", 
        "__storage_type__": "0", 
        "__wd_mult__": "1.0"
      }, 
      "inputs": []
    }, 
    {
      "op": "FullyConnected", 
      "name": "node_34", 
      "attrs": {
        "__profiler_scope__": "<unk>:", 
        "flatten": "False", 
        "no_bias": "False", 
        "num_hidden": "768"
      }, 
      "inputs": [[41, 0, 0], [42, 0, 0], [43, 0, 0]]
    }, 
    {
      "op": "Dropout", 
      "name": "node_35", 
      "attrs": {
        "__profiler_scope__": "<unk>:", 
        "axes": "()", 
        "cudnn_off": "False", 
        "p": "0.1"
      }, 
      "inputs": [[44, 0, 0]]
    }, 
    {
      "op": "_npi_add", 
      "name": "node_36", 
      "inputs": [[45, 0, 0], [11, 0, 0]]
    }, 
    {
      "op": "null", 
      "name": "encoder.all_layers.0.layer_norm.gamma", 
      "attrs": {
        "__dtype__": "0", 
        "__init__": "ones", 
        "__lr_mult__": "1.0", 
        "__profiler_scope__": "<unk>:", 
        "__shape__": "(768,)", 
        "__storage_type__": "0", 
        "__wd_mult__": "1.0"
      }, 
      "inputs": []
    }, 
    {
      "op": "null", 
      "name": "encoder.all_layers.0.layer_norm.beta", 
      "attrs": {
        "__dtype__": "0", 
        "__init__": "zeros", 
        "__lr_mult__": "1.0", 
        "__profiler_scope__": "<unk>:", 
        "__shape__": "(768,)", 
        "__storage_type__": "0", 
        "__wd_mult__": "1.0"
      }, 
      "inputs": []
    }, 
    {
      "op": "LayerNorm", 
      "name": "node_37", 
      "attrs": {
        "__profiler_scope__": "<unk>:", 
        "axis": "-1", 
        "eps": "1e-05"
      }, 
      "inputs": [[46, 0, 0], [47, 0, 0], [48, 0, 0]]
    }, 
    {
      "op": "null", 
      "name": "encoder.all_layers.0.ffn.ffn_1.weight", 
      "attrs": {
        "__dtype__": "0", 
        "__init__": "[\"truncnorm\", {}]", 
        "__lr_mult__": "1.0", 
        "__profiler_scope__": "<unk>:", 
        "__shape__": "(3072, 768)", 
        "__storage_type__": "0", 
        "__wd_mult__": "1.0"
      }, 
      "inputs": []
    }, 
    {
      "op": "null", 
      "name": "encoder.all_layers.0.ffn.ffn_1.bias", 
      "attrs": {
        "__dtype__": "0", 
        "__init__": "[\"zero\", {}]", 
        "__lr_mult__": "1.0", 
        "__profiler_scope__": "<unk>:", 
        "__shape__": "(3072,)", 
        "__storage_type__": "0", 
        "__wd_mult__": "1.0"
      }, 
      "inputs": []
    }, 
    {
      "op": "FullyConnected", 
      "name": "node_38", 
      "attrs": {
        "__profiler_scope__": "<unk>:", 
        "flatten": "False", 
        "no_bias": "False", 
        "num_hidden": "3072"
      }, 
      "inputs": [[49, 0, 0], [50, 0, 0], [51, 0, 0]]
    }, 
    {
      "op": "LeakyReLU", 
      "name": "node_39", 
      "attrs": {
        "__profiler_scope__": "<unk>:", 
        "act_type": "gelu"
      }, 
      "inputs": [[52, 0, 0]]
    }, 
    {
      "op": "_npi_copy", 
      "name": "node_40", 
      "inputs": [[53, 0, 0]]
    }, 
    {
      "op": "null", 
      "name": "encoder.all_layers.0.ffn.ffn_2.weight", 
      "attrs": {
        "__dtype__": "0", 
        "__init__": "[\"truncnorm\", {}]", 
        "__lr_mult__": "1.0", 
        "__profiler_scope__": "<unk>:", 
        "__shape__": "(768, 3072)", 
        "__storage_type__": "0", 
        "__wd_mult__": "1.0"
      }, 
      "inputs": []
    }, 
    {
      "op": "null", 
      "name": "encoder.all_layers.0.ffn.ffn_2.bias", 
      "attrs": {
        "__dtype__": "0", 
        "__init__": "[\"zero\", {}]", 
        "__lr_mult__": "1.0", 
        "__profiler_scope__": "<unk>:", 
        "__shape__": "(768,)", 
        "__storage_type__": "0", 
        "__wd_mult__": "1.0"
      }, 
      "inputs": []
    }, 
    {
      "op": "FullyConnected", 
      "name": "node_41", 
      "attrs": {
        "__profiler_scope__": "<unk>:", 
        "flatten": "False", 
        "no_bias": "False", 
        "num_hidden": "768"
      }, 
      "inputs": [[54, 0, 0], [55, 0, 0], [56, 0, 0]]
    }, 
    {
      "op": "Dropout", 
      "name": "node_42", 
      "attrs": {
        "__profiler_scope__": "<unk>:", 
        "axes": "()", 
        "cudnn_off": "False", 
        "p": "0.1"
      }, 
      "inputs": [[57, 0, 0]]
    }, 
    {
      "op": "_npi_add", 
      "name": "node_43", 
      "inputs": [[58, 0, 0], [49, 0, 0]]
    }, 
    {
      "op": "null", 
      "name": "encoder.all_layers.0.ffn.layer_norm.gamma", 
      "attrs": {
        "__dtype__": "0", 
        "__init__": "ones", 
        "__lr_mult__": "1.0", 
        "__profiler_scope__": "<unk>:", 
        "__shape__": "(768,)", 
        "__storage_type__": "0", 
        "__wd_mult__": "1.0"
      }, 
      "inputs": []
    }, 
    {
      "op": "null", 
      "name": "encoder.all_layers.0.ffn.layer_norm.beta", 
      "attrs": {
        "__dtype__": "0", 
        "__init__": "zeros", 
        "__lr_mult__": "1.0", 
        "__profiler_scope__": "<unk>:", 
        "__shape__": "(768,)", 
        "__storage_type__": "0", 
        "__wd_mult__": "1.0"
      }, 
      "inputs": []
    }, 
    {
      "op": "LayerNorm", 
      "name": "node_44", 
      "attrs": {
        "__profiler_scope__": "<unk>:", 
        "axis": "-1", 
        "eps": "1e-05"
      }, 
      "inputs": [[59, 0, 0], [60, 0, 0], [61, 0, 0]]
    }, 
    {
      "op": "null", 
      "name": "encoder.all_layers.1.attn_qkv.weight", 
      "attrs": {
        "__dtype__": "0", 
        "__init__": "[\"truncnorm\", {}]", 
        "__lr_mult__": "1.0", 
        "__profiler_scope__": "<unk>:", 
        "__shape__": "(2304, 768)", 
        "__storage_type__": "0", 
        "__wd_mult__": "1.0"
      }, 
      "inputs": []
    }, 
    {
      "op": "null", 
      "name": "encoder.all_layers.1.attn_qkv.bias", 
      "attrs": {
        "__dtype__": "0", 
        "__init__": "[\"zero\", {}]", 
        "__lr_mult__": "1.0", 
        "__profiler_scope__": "<unk>:", 
        "__shape__": "(2304,)", 
        "__storage_type__": "0", 
        "__wd_mult__": "1.0"
      }, 
      "inputs": []
    }, 
    {
      "op": "FullyConnected", 
      "name": "node_45", 
      "attrs": {
        "__profiler_scope__": "<unk>:", 
        "flatten": "False", 
        "no_bias": "False", 
        "num_hidden": "2304"
      }, 
      "inputs": [[62, 0, 0], [63, 0, 0], [64, 0, 0]]
    }, 
    {
      "op": "_split_v2", 
      "name": "node_46", 
      "attrs": {
        "axis": "-1", 
        "indices": "[]", 
        "sections": "3", 
        "squeeze_axis": "0"
      }, 
      "inputs": [[65, 0, 0]]
    }, 
    {
      "op": "_npx_reshape", 
      "name": "node_47", 
      "attrs": {
        "__profiler_scope__": "<unk>:", 
        "newshape": "(-2, -2, 12, -1)"
      }, 
      "inputs": [[66, 0, 0]]
    }, 
    {
      "op": "SwapAxis", 
      "name": "node_52", 
      "attrs": {
        "__profiler_scope__": "<unk>:", 
        "dim1": "1", 
        "dim2": "2"
      }, 
      "inputs": [[67, 0, 0]]
    }, 
    {
      "op": "_npx_reshape", 
      "name": "node_48", 
      "attrs": {
        "__profiler_scope__": "<unk>:", 
        "newshape": "(-2, -2, 12, -1)"
      }, 
      "inputs": [[66, 1, 0]]
    }, 
    {
      "op": "SwapAxis", 
      "name": "node_53", 
      "attrs": {
        "__profiler_scope__": "<unk>:", 
        "dim1": "1", 
        "dim2": "2"
      }, 
      "inputs": [[69, 0, 0]]
    }, 
    {
      "op": "batch_dot", 
      "name": "node_54", 
      "attrs": {
        "__profiler_scope__": "<unk>:", 
        "transpose_b": "True"
      }, 
      "inputs": [[68, 0, 0], [70, 0, 0]]
    }, 
    {
      "op": "expand_dims", 
      "name": "node_50", 
      "attrs": {
        "__profiler_scope__": "<unk>:", 
        "axis": "1"
      }, 
      "inputs": [[31, 0, 0]]
    }, 
    {
      "op": "Cast", 
      "name": "node_51", 
      "attrs": {
        "__profiler_scope__": "<unk>:", 
        "dtype": "bool"
      }, 
      "inputs": [[72, 0, 0]]
    }, 
    {
      "op": "Cast", 
      "name": "node_55", 
      "attrs": {
        "__profiler_scope__": "<unk>:", 
        "dtype": "bool"
      }, 
      "inputs": [[73, 0, 0]]
    }, 
    {
      "op": "masked_softmax", 
      "name": "node_56", 
      "attrs": {
        "__profiler_scope__": "<unk>:", 
        "axis": "-1", 
        "temperature": "8.0"
      }, 
      "inputs": [[71, 0, 0], [74, 0, 0]]
    }, 
    {
      "op": "Dropout", 
      "name": "node_57", 
      "attrs": {
        "__profiler_scope__": "<unk>:", 
        "p": "0.1"
      }, 
      "inputs": [[75, 0, 0]]
    }, 
    {
      "op": "_npx_reshape", 
      "name": "node_49", 
      "attrs": {
        "__profiler_scope__": "<unk>:", 
        "newshape": "(-2, -2, 12, -1)"
      }, 
      "inputs": [[66, 2, 0]]
    }, 
    {
      "op": "SwapAxis", 
      "name": "node_58", 
      "attrs": {
        "__profiler_scope__": "<unk>:", 
        "dim1": "1", 
        "dim2": "2"
      }, 
      "inputs": [[77, 0, 0]]
    }, 
    {
      "op": "batch_dot", 
      "name": "node_59", 
      "attrs": {"__profiler_scope__": "<unk>:"}, 
      "inputs": [[76, 0, 0], [78, 0, 0]]
    }, 
    {
      "op": "_npi_transpose", 
      "name": "node_60", 
      "attrs": {"axes": "[0,2,1,3]"}, 
      "inputs": [[79, 0, 0]]
    }, 
    {
      "op": "_npx_reshape", 
      "name": "node_61", 
      "attrs": {
        "__profiler_scope__": "<unk>:", 
        "newshape": "(-2, -2, -1)"
      }, 
      "inputs": [[80, 0, 0]]
    }, 
    {
      "op": "null", 
      "name": "encoder.all_layers.1.attention_proj.weight", 
      "attrs": {
        "__dtype__": "0", 
        "__init__": "[\"truncnorm\", {}]", 
        "__lr_mult__": "1.0", 
        "__profiler_scope__": "<unk>:", 
        "__shape__": "(768, 768)", 
        "__storage_type__": "0", 
        "__wd_mult__": "1.0"
      }, 
      "inputs": []
    }, 
    {
      "op": "null", 
      "name": "encoder.all_layers.1.attention_proj.bias", 
      "attrs": {
        "__dtype__": "0", 
        "__init__": "[\"zero\", {}]", 
        "__lr_mult__": "1.0", 
        "__profiler_scope__": "<unk>:", 
        "__shape__": "(768,)", 
        "__storage_type__": "0", 
        "__wd_mult__": "1.0"
      }, 
      "inputs": []
    }, 
    {
      "op": "FullyConnected", 
      "name": "node_62", 
      "attrs": {
        "__profiler_scope__": "<unk>:", 
        "flatten": "False", 
        "no_bias": "False", 
        "num_hidden": "768"
      }, 
      "inputs": [[81, 0, 0], [82, 0, 0], [83, 0, 0]]
    }, 
    {
      "op": "Dropout", 
      "name": "node_63", 
      "attrs": {
        "__profiler_scope__": "<unk>:", 
        "axes": "()", 
        "cudnn_off": "False", 
        "p": "0.1"
      }, 
      "inputs": [[84, 0, 0]]
    }, 
    {
      "op": "_npi_add", 
      "name": "node_64", 
      "inputs": [[85, 0, 0], [62, 0, 0]]
    }, 
    {
      "op": "null", 
      "name": "encoder.all_layers.1.layer_norm.gamma", 
      "attrs": {
        "__dtype__": "0", 
        "__init__": "ones", 
        "__lr_mult__": "1.0", 
        "__profiler_scope__": "<unk>:", 
        "__shape__": "(768,)", 
        "__storage_type__": "0", 
        "__wd_mult__": "1.0"
      }, 
      "inputs": []
    }, 
    {
      "op": "null", 
      "name": "encoder.all_layers.1.layer_norm.beta", 
      "attrs": {
        "__dtype__": "0", 
        "__init__": "zeros", 
        "__lr_mult__": "1.0", 
        "__profiler_scope__": "<unk>:", 
        "__shape__": "(768,)", 
        "__storage_type__": "0", 
        "__wd_mult__": "1.0"
      }, 
      "inputs": []
    }, 
    {
      "op": "LayerNorm", 
      "name": "node_65", 
      "attrs": {
        "__profiler_scope__": "<unk>:", 
        "axis": "-1", 
        "eps": "1e-05"
      }, 
      "inputs": [[86, 0, 0], [87, 0, 0], [88, 0, 0]]
    }, 
    {
      "op": "null", 
      "name": "encoder.all_layers.1.ffn.ffn_1.weight", 
      "attrs": {
        "__dtype__": "0", 
        "__init__": "[\"truncnorm\", {}]", 
        "__lr_mult__": "1.0", 
        "__profiler_scope__": "<unk>:", 
        "__shape__": "(3072, 768)", 
        "__storage_type__": "0", 
        "__wd_mult__": "1.0"
      }, 
      "inputs": []
    }, 
    {
      "op": "null", 
      "name": "encoder.all_layers.1.ffn.ffn_1.bias", 
      "attrs": {
        "__dtype__": "0", 
        "__init__": "[\"zero\", {}]", 
        "__lr_mult__": "1.0", 
        "__profiler_scope__": "<unk>:", 
        "__shape__": "(3072,)", 
        "__storage_type__": "0", 
        "__wd_mult__": "1.0"
      }, 
      "inputs": []
    }, 
    {
      "op": "FullyConnected", 
      "name": "node_66", 
      "attrs": {
        "__profiler_scope__": "<unk>:", 
        "flatten": "False", 
        "no_bias": "False", 
        "num_hidden": "3072"
      }, 
      "inputs": [[89, 0, 0], [90, 0, 0], [91, 0, 0]]
    }, 
    {
      "op": "LeakyReLU", 
      "name": "node_67", 
      "attrs": {
        "__profiler_scope__": "<unk>:", 
        "act_type": "gelu"
      }, 
      "inputs": [[92, 0, 0]]
    }, 
    {
      "op": "_npi_copy", 
      "name": "node_68", 
      "inputs": [[93, 0, 0]]
    }, 
    {
      "op": "null", 
      "name": "encoder.all_layers.1.ffn.ffn_2.weight", 
      "attrs": {
        "__dtype__": "0", 
        "__init__": "[\"truncnorm\", {}]", 
        "__lr_mult__": "1.0", 
        "__profiler_scope__": "<unk>:", 
        "__shape__": "(768, 3072)", 
        "__storage_type__": "0", 
        "__wd_mult__": "1.0"
      }, 
      "inputs": []
    }, 
    {
      "op": "null", 
      "name": "encoder.all_layers.1.ffn.ffn_2.bias", 
      "attrs": {
        "__dtype__": "0", 
        "__init__": "[\"zero\", {}]", 
        "__lr_mult__": "1.0", 
        "__profiler_scope__": "<unk>:", 
        "__shape__": "(768,)", 
        "__storage_type__": "0", 
        "__wd_mult__": "1.0"
      }, 
      "inputs": []
    }, 
    {
      "op": "FullyConnected", 
      "name": "node_69", 
      "attrs": {
        "__profiler_scope__": "<unk>:", 
        "flatten": "False", 
        "no_bias": "False", 
        "num_hidden": "768"
      }, 
      "inputs": [[94, 0, 0], [95, 0, 0], [96, 0, 0]]
    }, 
    {
      "op": "Dropout", 
      "name": "node_70", 
      "attrs": {
        "__profiler_scope__": "<unk>:", 
        "axes": "()", 
        "cudnn_off": "False", 
        "p": "0.1"
      }, 
      "inputs": [[97, 0, 0]]
    }, 
    {
      "op": "_npi_add", 
      "name": "node_71", 
      "inputs": [[98, 0, 0], [89, 0, 0]]
    }, 
    {
      "op": "null", 
      "name": "encoder.all_layers.1.ffn.layer_norm.gamma", 
      "attrs": {
        "__dtype__": "0", 
        "__init__": "ones", 
        "__lr_mult__": "1.0", 
        "__profiler_scope__": "<unk>:", 
        "__shape__": "(768,)", 
        "__storage_type__": "0", 
        "__wd_mult__": "1.0"
      }, 
      "inputs": []
    }, 
    {
      "op": "null", 
      "name": "encoder.all_layers.1.ffn.layer_norm.beta", 
      "attrs": {
        "__dtype__": "0", 
        "__init__": "zeros", 
        "__lr_mult__": "1.0", 
        "__profiler_scope__": "<unk>:", 
        "__shape__": "(768,)", 
        "__storage_type__": "0", 
        "__wd_mult__": "1.0"
      }, 
      "inputs": []
    }, 
    {
      "op": "LayerNorm", 
      "name": "node_72", 
      "attrs": {
        "__profiler_scope__": "<unk>:", 
        "axis": "-1", 
        "eps": "1e-05"
      }, 
      "inputs": [[99, 0, 0], [100, 0, 0], [101, 0, 0]]
    }, 
    {
      "op": "null", 
      "name": "encoder.all_layers.2.attn_qkv.weight", 
      "attrs": {
        "__dtype__": "0", 
        "__init__": "[\"truncnorm\", {}]", 
        "__lr_mult__": "1.0", 
        "__profiler_scope__": "<unk>:", 
        "__shape__": "(2304, 768)", 
        "__storage_type__": "0", 
        "__wd_mult__": "1.0"
      }, 
      "inputs": []
    }, 
    {
      "op": "null", 
      "name": "encoder.all_layers.2.attn_qkv.bias", 
      "attrs": {
        "__dtype__": "0", 
        "__init__": "[\"zero\", {}]", 
        "__lr_mult__": "1.0", 
        "__profiler_scope__": "<unk>:", 
        "__shape__": "(2304,)", 
        "__storage_type__": "0", 
        "__wd_mult__": "1.0"
      }, 
      "inputs": []
    }, 
    {
      "op": "FullyConnected", 
      "name": "node_73", 
      "attrs": {
        "__profiler_scope__": "<unk>:", 
        "flatten": "False", 
        "no_bias": "False", 
        "num_hidden": "2304"
      }, 
      "inputs": [[102, 0, 0], [103, 0, 0], [104, 0, 0]]
    }, 
    {
      "op": "_split_v2", 
      "name": "node_74", 
      "attrs": {
        "axis": "-1", 
        "indices": "[]", 
        "sections": "3", 
        "squeeze_axis": "0"
      }, 
      "inputs": [[105, 0, 0]]
    }, 
    {
      "op": "_npx_reshape", 
      "name": "node_75", 
      "attrs": {
        "__profiler_scope__": "<unk>:", 
        "newshape": "(-2, -2, 12, -1)"
      }, 
      "inputs": [[106, 0, 0]]
    }, 
    {
      "op": "SwapAxis", 
      "name": "node_80", 
      "attrs": {
        "__profiler_scope__": "<unk>:", 
        "dim1": "1", 
        "dim2": "2"
      }, 
      "inputs": [[107, 0, 0]]
    }, 
    {
      "op": "_npx_reshape", 
      "name": "node_76", 
      "attrs": {
        "__profiler_scope__": "<unk>:", 
        "newshape": "(-2, -2, 12, -1)"
      }, 
      "inputs": [[106, 1, 0]]
    }, 
    {
      "op": "SwapAxis", 
      "name": "node_81", 
      "attrs": {
        "__profiler_scope__": "<unk>:", 
        "dim1": "1", 
        "dim2": "2"
      }, 
      "inputs": [[109, 0, 0]]
    }, 
    {
      "op": "batch_dot", 
      "name": "node_82", 
      "attrs": {
        "__profiler_scope__": "<unk>:", 
        "transpose_b": "True"
      }, 
      "inputs": [[108, 0, 0], [110, 0, 0]]
    }, 
    {
      "op": "expand_dims", 
      "name": "node_78", 
      "attrs": {
        "__profiler_scope__": "<unk>:", 
        "axis": "1"
      }, 
      "inputs": [[31, 0, 0]]
    }, 
    {
      "op": "Cast", 
      "name": "node_79", 
      "attrs": {
        "__profiler_scope__": "<unk>:", 
        "dtype": "bool"
      }, 
      "inputs": [[112, 0, 0]]
    }, 
    {
      "op": "Cast", 
      "name": "node_83", 
      "attrs": {
        "__profiler_scope__": "<unk>:", 
        "dtype": "bool"
      }, 
      "inputs": [[113, 0, 0]]
    }, 
    {
      "op": "masked_softmax", 
      "name": "node_84", 
      "attrs": {
        "__profiler_scope__": "<unk>:", 
        "axis": "-1", 
        "temperature": "8.0"
      }, 
      "inputs": [[111, 0, 0], [114, 0, 0]]
    }, 
    {
      "op": "Dropout", 
      "name": "node_85", 
      "attrs": {
        "__profiler_scope__": "<unk>:", 
        "p": "0.1"
      }, 
      "inputs": [[115, 0, 0]]
    }, 
    {
      "op": "_npx_reshape", 
      "name": "node_77", 
      "attrs": {
        "__profiler_scope__": "<unk>:", 
        "newshape": "(-2, -2, 12, -1)"
      }, 
      "inputs": [[106, 2, 0]]
    }, 
    {
      "op": "SwapAxis", 
      "name": "node_86", 
      "attrs": {
        "__profiler_scope__": "<unk>:", 
        "dim1": "1", 
        "dim2": "2"
      }, 
      "inputs": [[117, 0, 0]]
    }, 
    {
      "op": "batch_dot", 
      "name": "node_87", 
      "attrs": {"__profiler_scope__": "<unk>:"}, 
      "inputs": [[116, 0, 0], [118, 0, 0]]
    }, 
    {
      "op": "_npi_transpose", 
      "name": "node_88", 
      "attrs": {"axes": "[0,2,1,3]"}, 
      "inputs": [[119, 0, 0]]
    }, 
    {
      "op": "_npx_reshape", 
      "name": "node_89", 
      "attrs": {
        "__profiler_scope__": "<unk>:", 
        "newshape": "(-2, -2, -1)"
      }, 
      "inputs": [[120, 0, 0]]
    }, 
    {
      "op": "null", 
      "name": "encoder.all_layers.2.attention_proj.weight", 
      "attrs": {
        "__dtype__": "0", 
        "__init__": "[\"truncnorm\", {}]", 
        "__lr_mult__": "1.0", 
        "__profiler_scope__": "<unk>:", 
        "__shape__": "(768, 768)", 
        "__storage_type__": "0", 
        "__wd_mult__": "1.0"
      }, 
      "inputs": []
    }, 
    {
      "op": "null", 
      "name": "encoder.all_layers.2.attention_proj.bias", 
      "attrs": {
        "__dtype__": "0", 
        "__init__": "[\"zero\", {}]", 
        "__lr_mult__": "1.0", 
        "__profiler_scope__": "<unk>:", 
        "__shape__": "(768,)", 
        "__storage_type__": "0", 
        "__wd_mult__": "1.0"
      }, 
      "inputs": []
    }, 
    {
      "op": "FullyConnected", 
      "name": "node_90", 
      "attrs": {
        "__profiler_scope__": "<unk>:", 
        "flatten": "False", 
        "no_bias": "False", 
        "num_hidden": "768"
      }, 
      "inputs": [[121, 0, 0], [122, 0, 0], [123, 0, 0]]
    }, 
    {
      "op": "Dropout", 
      "name": "node_91", 
      "attrs": {
        "__profiler_scope__": "<unk>:", 
        "axes": "()", 
        "cudnn_off": "False", 
        "p": "0.1"
      }, 
      "inputs": [[124, 0, 0]]
    }, 
    {
      "op": "_npi_add", 
      "name": "node_92", 
      "inputs": [[125, 0, 0], [102, 0, 0]]
    }, 
    {
      "op": "null", 
      "name": "encoder.all_layers.2.layer_norm.gamma", 
      "attrs": {
        "__dtype__": "0", 
        "__init__": "ones", 
        "__lr_mult__": "1.0", 
        "__profiler_scope__": "<unk>:", 
        "__shape__": "(768,)", 
        "__storage_type__": "0", 
        "__wd_mult__": "1.0"
      }, 
      "inputs": []
    }, 
    {
      "op": "null", 
      "name": "encoder.all_layers.2.layer_norm.beta", 
      "attrs": {
        "__dtype__": "0", 
        "__init__": "zeros", 
        "__lr_mult__": "1.0", 
        "__profiler_scope__": "<unk>:", 
        "__shape__": "(768,)", 
        "__storage_type__": "0", 
        "__wd_mult__": "1.0"
      }, 
      "inputs": []
    }, 
    {
      "op": "LayerNorm", 
      "name": "node_93", 
      "attrs": {
        "__profiler_scope__": "<unk>:", 
        "axis": "-1", 
        "eps": "1e-05"
      }, 
      "inputs": [[126, 0, 0], [127, 0, 0], [128, 0, 0]]
    }, 
    {
      "op": "null", 
      "name": "encoder.all_layers.2.ffn.ffn_1.weight", 
      "attrs": {
        "__dtype__": "0", 
        "__init__": "[\"truncnorm\", {}]", 
        "__lr_mult__": "1.0", 
        "__profiler_scope__": "<unk>:", 
        "__shape__": "(3072, 768)", 
        "__storage_type__": "0", 
        "__wd_mult__": "1.0"
      }, 
      "inputs": []
    }, 
    {
      "op": "null", 
      "name": "encoder.all_layers.2.ffn.ffn_1.bias", 
      "attrs": {
        "__dtype__": "0", 
        "__init__": "[\"zero\", {}]", 
        "__lr_mult__": "1.0", 
        "__profiler_scope__": "<unk>:", 
        "__shape__": "(3072,)", 
        "__storage_type__": "0", 
        "__wd_mult__": "1.0"
      }, 
      "inputs": []
    }, 
    {
      "op": "FullyConnected", 
      "name": "node_94", 
      "attrs": {
        "__profiler_scope__": "<unk>:", 
        "flatten": "False", 
        "no_bias": "False", 
        "num_hidden": "3072"
      }, 
      "inputs": [[129, 0, 0], [130, 0, 0], [131, 0, 0]]
    }, 
    {
      "op": "LeakyReLU", 
      "name": "node_95", 
      "attrs": {
        "__profiler_scope__": "<unk>:", 
        "act_type": "gelu"
      }, 
      "inputs": [[132, 0, 0]]
    }, 
    {
      "op": "_npi_copy", 
      "name": "node_96", 
      "inputs": [[133, 0, 0]]
    }, 
    {
      "op": "null", 
      "name": "encoder.all_layers.2.ffn.ffn_2.weight", 
      "attrs": {
        "__dtype__": "0", 
        "__init__": "[\"truncnorm\", {}]", 
        "__lr_mult__": "1.0", 
        "__profiler_scope__": "<unk>:", 
        "__shape__": "(768, 3072)", 
        "__storage_type__": "0", 
        "__wd_mult__": "1.0"
      }, 
      "inputs": []
    }, 
    {
      "op": "null", 
      "name": "encoder.all_layers.2.ffn.ffn_2.bias", 
      "attrs": {
        "__dtype__": "0", 
        "__init__": "[\"zero\", {}]", 
        "__lr_mult__": "1.0", 
        "__profiler_scope__": "<unk>:", 
        "__shape__": "(768,)", 
        "__storage_type__": "0", 
        "__wd_mult__": "1.0"
      }, 
      "inputs": []
    }, 
    {
      "op": "FullyConnected", 
      "name": "node_97", 
      "attrs": {
        "__profiler_scope__": "<unk>:", 
        "flatten": "False", 
        "no_bias": "False", 
        "num_hidden": "768"
      }, 
      "inputs": [[134, 0, 0], [135, 0, 0], [136, 0, 0]]
    }, 
    {
      "op": "Dropout", 
      "name": "node_98", 
      "attrs": {
        "__profiler_scope__": "<unk>:", 
        "axes": "()", 
        "cudnn_off": "False", 
        "p": "0.1"
      }, 
      "inputs": [[137, 0, 0]]
    }, 
    {
      "op": "_npi_add", 
      "name": "node_99", 
      "inputs": [[138, 0, 0], [129, 0, 0]]
    }, 
    {
      "op": "null", 
      "name": "encoder.all_layers.2.ffn.layer_norm.gamma", 
      "attrs": {
        "__dtype__": "0", 
        "__init__": "ones", 
        "__lr_mult__": "1.0", 
        "__profiler_scope__": "<unk>:", 
        "__shape__": "(768,)", 
        "__storage_type__": "0", 
        "__wd_mult__": "1.0"
      }, 
      "inputs": []
    }, 
    {
      "op": "null", 
      "name": "encoder.all_layers.2.ffn.layer_norm.beta", 
      "attrs": {
        "__dtype__": "0", 
        "__init__": "zeros", 
        "__lr_mult__": "1.0", 
        "__profiler_scope__": "<unk>:", 
        "__shape__": "(768,)", 
        "__storage_type__": "0", 
        "__wd_mult__": "1.0"
      }, 
      "inputs": []
    }, 
    {
      "op": "LayerNorm", 
      "name": "node_100", 
      "attrs": {
        "__profiler_scope__": "<unk>:", 
        "axis": "-1", 
        "eps": "1e-05"
      }, 
      "inputs": [[139, 0, 0], [140, 0, 0], [141, 0, 0]]
    }, 
    {
      "op": "null", 
      "name": "encoder.all_layers.3.attn_qkv.weight", 
      "attrs": {
        "__dtype__": "0", 
        "__init__": "[\"truncnorm\", {}]", 
        "__lr_mult__": "1.0", 
        "__profiler_scope__": "<unk>:", 
        "__shape__": "(2304, 768)", 
        "__storage_type__": "0", 
        "__wd_mult__": "1.0"
      }, 
      "inputs": []
    }, 
    {
      "op": "null", 
      "name": "encoder.all_layers.3.attn_qkv.bias", 
      "attrs": {
        "__dtype__": "0", 
        "__init__": "[\"zero\", {}]", 
        "__lr_mult__": "1.0", 
        "__profiler_scope__": "<unk>:", 
        "__shape__": "(2304,)", 
        "__storage_type__": "0", 
        "__wd_mult__": "1.0"
      }, 
      "inputs": []
    }, 
    {
      "op": "FullyConnected", 
      "name": "node_101", 
      "attrs": {
        "__profiler_scope__": "<unk>:", 
        "flatten": "False", 
        "no_bias": "False", 
        "num_hidden": "2304"
      }, 
      "inputs": [[142, 0, 0], [143, 0, 0], [144, 0, 0]]
    }, 
    {
      "op": "_split_v2", 
      "name": "node_102", 
      "attrs": {
        "axis": "-1", 
        "indices": "[]", 
        "sections": "3", 
        "squeeze_axis": "0"
      }, 
      "inputs": [[145, 0, 0]]
    }, 
    {
      "op": "_npx_reshape", 
      "name": "node_103", 
      "attrs": {
        "__profiler_scope__": "<unk>:", 
        "newshape": "(-2, -2, 12, -1)"
      }, 
      "inputs": [[146, 0, 0]]
    }, 
    {
      "op": "SwapAxis", 
      "name": "node_108", 
      "attrs": {
        "__profiler_scope__": "<unk>:", 
        "dim1": "1", 
        "dim2": "2"
      }, 
      "inputs": [[147, 0, 0]]
    }, 
    {
      "op": "_npx_reshape", 
      "name": "node_104", 
      "attrs": {
        "__profiler_scope__": "<unk>:", 
        "newshape": "(-2, -2, 12, -1)"
      }, 
      "inputs": [[146, 1, 0]]
    }, 
    {
      "op": "SwapAxis", 
      "name": "node_109", 
      "attrs": {
        "__profiler_scope__": "<unk>:", 
        "dim1": "1", 
        "dim2": "2"
      }, 
      "inputs": [[149, 0, 0]]
    }, 
    {
      "op": "batch_dot", 
      "name": "node_110", 
      "attrs": {
        "__profiler_scope__": "<unk>:", 
        "transpose_b": "True"
      }, 
      "inputs": [[148, 0, 0], [150, 0, 0]]
    }, 
    {
      "op": "expand_dims", 
      "name": "node_106", 
      "attrs": {
        "__profiler_scope__": "<unk>:", 
        "axis": "1"
      }, 
      "inputs": [[31, 0, 0]]
    }, 
    {
      "op": "Cast", 
      "name": "node_107", 
      "attrs": {
        "__profiler_scope__": "<unk>:", 
        "dtype": "bool"
      }, 
      "inputs": [[152, 0, 0]]
    }, 
    {
      "op": "Cast", 
      "name": "node_111", 
      "attrs": {
        "__profiler_scope__": "<unk>:", 
        "dtype": "bool"
      }, 
      "inputs": [[153, 0, 0]]
    }, 
    {
      "op": "masked_softmax", 
      "name": "node_112", 
      "attrs": {
        "__profiler_scope__": "<unk>:", 
        "axis": "-1", 
        "temperature": "8.0"
      }, 
      "inputs": [[151, 0, 0], [154, 0, 0]]
    }, 
    {
      "op": "Dropout", 
      "name": "node_113", 
      "attrs": {
        "__profiler_scope__": "<unk>:", 
        "p": "0.1"
      }, 
      "inputs": [[155, 0, 0]]
    }, 
    {
      "op": "_npx_reshape", 
      "name": "node_105", 
      "attrs": {
        "__profiler_scope__": "<unk>:", 
        "newshape": "(-2, -2, 12, -1)"
      }, 
      "inputs": [[146, 2, 0]]
    }, 
    {
      "op": "SwapAxis", 
      "name": "node_114", 
      "attrs": {
        "__profiler_scope__": "<unk>:", 
        "dim1": "1", 
        "dim2": "2"
      }, 
      "inputs": [[157, 0, 0]]
    }, 
    {
      "op": "batch_dot", 
      "name": "node_115", 
      "attrs": {"__profiler_scope__": "<unk>:"}, 
      "inputs": [[156, 0, 0], [158, 0, 0]]
    }, 
    {
      "op": "_npi_transpose", 
      "name": "node_116", 
      "attrs": {"axes": "[0,2,1,3]"}, 
      "inputs": [[159, 0, 0]]
    }, 
    {
      "op": "_npx_reshape", 
      "name": "node_117", 
      "attrs": {
        "__profiler_scope__": "<unk>:", 
        "newshape": "(-2, -2, -1)"
      }, 
      "inputs": [[160, 0, 0]]
    }, 
    {
      "op": "null", 
      "name": "encoder.all_layers.3.attention_proj.weight", 
      "attrs": {
        "__dtype__": "0", 
        "__init__": "[\"truncnorm\", {}]", 
        "__lr_mult__": "1.0", 
        "__profiler_scope__": "<unk>:", 
        "__shape__": "(768, 768)", 
        "__storage_type__": "0", 
        "__wd_mult__": "1.0"
      }, 
      "inputs": []
    }, 
    {
      "op": "null", 
      "name": "encoder.all_layers.3.attention_proj.bias", 
      "attrs": {
        "__dtype__": "0", 
        "__init__": "[\"zero\", {}]", 
        "__lr_mult__": "1.0", 
        "__profiler_scope__": "<unk>:", 
        "__shape__": "(768,)", 
        "__storage_type__": "0", 
        "__wd_mult__": "1.0"
      }, 
      "inputs": []
    }, 
    {
      "op": "FullyConnected", 
      "name": "node_118", 
      "attrs": {
        "__profiler_scope__": "<unk>:", 
        "flatten": "False", 
        "no_bias": "False", 
        "num_hidden": "768"
      }, 
      "inputs": [[161, 0, 0], [162, 0, 0], [163, 0, 0]]
    }, 
    {
      "op": "Dropout", 
      "name": "node_119", 
      "attrs": {
        "__profiler_scope__": "<unk>:", 
        "axes": "()", 
        "cudnn_off": "False", 
        "p": "0.1"
      }, 
      "inputs": [[164, 0, 0]]
    }, 
    {
      "op": "_npi_add", 
      "name": "node_120", 
      "inputs": [[165, 0, 0], [142, 0, 0]]
    }, 
    {
      "op": "null", 
      "name": "encoder.all_layers.3.layer_norm.gamma", 
      "attrs": {
        "__dtype__": "0", 
        "__init__": "ones", 
        "__lr_mult__": "1.0", 
        "__profiler_scope__": "<unk>:", 
        "__shape__": "(768,)", 
        "__storage_type__": "0", 
        "__wd_mult__": "1.0"
      }, 
      "inputs": []
    }, 
    {
      "op": "null", 
      "name": "encoder.all_layers.3.layer_norm.beta", 
      "attrs": {
        "__dtype__": "0", 
        "__init__": "zeros", 
        "__lr_mult__": "1.0", 
        "__profiler_scope__": "<unk>:", 
        "__shape__": "(768,)", 
        "__storage_type__": "0", 
        "__wd_mult__": "1.0"
      }, 
      "inputs": []
    }, 
    {
      "op": "LayerNorm", 
      "name": "node_121", 
      "attrs": {
        "__profiler_scope__": "<unk>:", 
        "axis": "-1", 
        "eps": "1e-05"
      }, 
      "inputs": [[166, 0, 0], [167, 0, 0], [168, 0, 0]]
    }, 
    {
      "op": "null", 
      "name": "encoder.all_layers.3.ffn.ffn_1.weight", 
      "attrs": {
        "__dtype__": "0", 
        "__init__": "[\"truncnorm\", {}]", 
        "__lr_mult__": "1.0", 
        "__profiler_scope__": "<unk>:", 
        "__shape__": "(3072, 768)", 
        "__storage_type__": "0", 
        "__wd_mult__": "1.0"
      }, 
      "inputs": []
    }, 
    {
      "op": "null", 
      "name": "encoder.all_layers.3.ffn.ffn_1.bias", 
      "attrs": {
        "__dtype__": "0", 
        "__init__": "[\"zero\", {}]", 
        "__lr_mult__": "1.0", 
        "__profiler_scope__": "<unk>:", 
        "__shape__": "(3072,)", 
        "__storage_type__": "0", 
        "__wd_mult__": "1.0"
      }, 
      "inputs": []
    }, 
    {
      "op": "FullyConnected", 
      "name": "node_122", 
      "attrs": {
        "__profiler_scope__": "<unk>:", 
        "flatten": "False", 
        "no_bias": "False", 
        "num_hidden": "3072"
      }, 
      "inputs": [[169, 0, 0], [170, 0, 0], [171, 0, 0]]
    }, 
    {
      "op": "LeakyReLU", 
      "name": "node_123", 
      "attrs": {
        "__profiler_scope__": "<unk>:", 
        "act_type": "gelu"
      }, 
      "inputs": [[172, 0, 0]]
    }, 
    {
      "op": "_npi_copy", 
      "name": "node_124", 
      "inputs": [[173, 0, 0]]
    }, 
    {
      "op": "null", 
      "name": "encoder.all_layers.3.ffn.ffn_2.weight", 
      "attrs": {
        "__dtype__": "0", 
        "__init__": "[\"truncnorm\", {}]", 
        "__lr_mult__": "1.0", 
        "__profiler_scope__": "<unk>:", 
        "__shape__": "(768, 3072)", 
        "__storage_type__": "0", 
        "__wd_mult__": "1.0"
      }, 
      "inputs": []
    }, 
    {
      "op": "null", 
      "name": "encoder.all_layers.3.ffn.ffn_2.bias", 
      "attrs": {
        "__dtype__": "0", 
        "__init__": "[\"zero\", {}]", 
        "__lr_mult__": "1.0", 
        "__profiler_scope__": "<unk>:", 
        "__shape__": "(768,)", 
        "__storage_type__": "0", 
        "__wd_mult__": "1.0"
      }, 
      "inputs": []
    }, 
    {
      "op": "FullyConnected", 
      "name": "node_125", 
      "attrs": {
        "__profiler_scope__": "<unk>:", 
        "flatten": "False", 
        "no_bias": "False", 
        "num_hidden": "768"
      }, 
      "inputs": [[174, 0, 0], [175, 0, 0], [176, 0, 0]]
    }, 
    {
      "op": "Dropout", 
      "name": "node_126", 
      "attrs": {
        "__profiler_scope__": "<unk>:", 
        "axes": "()", 
        "cudnn_off": "False", 
        "p": "0.1"
      }, 
      "inputs": [[177, 0, 0]]
    }, 
    {
      "op": "_npi_add", 
      "name": "node_127", 
      "inputs": [[178, 0, 0], [169, 0, 0]]
    }, 
    {
      "op": "null", 
      "name": "encoder.all_layers.3.ffn.layer_norm.gamma", 
      "attrs": {
        "__dtype__": "0", 
        "__init__": "ones", 
        "__lr_mult__": "1.0", 
        "__profiler_scope__": "<unk>:", 
        "__shape__": "(768,)", 
        "__storage_type__": "0", 
        "__wd_mult__": "1.0"
      }, 
      "inputs": []
    }, 
    {
      "op": "null", 
      "name": "encoder.all_layers.3.ffn.layer_norm.beta", 
      "attrs": {
        "__dtype__": "0", 
        "__init__": "zeros", 
        "__lr_mult__": "1.0", 
        "__profiler_scope__": "<unk>:", 
        "__shape__": "(768,)", 
        "__storage_type__": "0", 
        "__wd_mult__": "1.0"
      }, 
      "inputs": []
    }, 
    {
      "op": "LayerNorm", 
      "name": "node_128", 
      "attrs": {
        "__profiler_scope__": "<unk>:", 
        "axis": "-1", 
        "eps": "1e-05"
      }, 
      "inputs": [[179, 0, 0], [180, 0, 0], [181, 0, 0]]
    }, 
    {
      "op": "null", 
      "name": "encoder.all_layers.4.attn_qkv.weight", 
      "attrs": {
        "__dtype__": "0", 
        "__init__": "[\"truncnorm\", {}]", 
        "__lr_mult__": "1.0", 
        "__profiler_scope__": "<unk>:", 
        "__shape__": "(2304, 768)", 
        "__storage_type__": "0", 
        "__wd_mult__": "1.0"
      }, 
      "inputs": []
    }, 
    {
      "op": "null", 
      "name": "encoder.all_layers.4.attn_qkv.bias", 
      "attrs": {
        "__dtype__": "0", 
        "__init__": "[\"zero\", {}]", 
        "__lr_mult__": "1.0", 
        "__profiler_scope__": "<unk>:", 
        "__shape__": "(2304,)", 
        "__storage_type__": "0", 
        "__wd_mult__": "1.0"
      }, 
      "inputs": []
    }, 
    {
      "op": "FullyConnected", 
      "name": "node_129", 
      "attrs": {
        "__profiler_scope__": "<unk>:", 
        "flatten": "False", 
        "no_bias": "False", 
        "num_hidden": "2304"
      }, 
      "inputs": [[182, 0, 0], [183, 0, 0], [184, 0, 0]]
    }, 
    {
      "op": "_split_v2", 
      "name": "node_130", 
      "attrs": {
        "axis": "-1", 
        "indices": "[]", 
        "sections": "3", 
        "squeeze_axis": "0"
      }, 
      "inputs": [[185, 0, 0]]
    }, 
    {
      "op": "_npx_reshape", 
      "name": "node_131", 
      "attrs": {
        "__profiler_scope__": "<unk>:", 
        "newshape": "(-2, -2, 12, -1)"
      }, 
      "inputs": [[186, 0, 0]]
    }, 
    {
      "op": "SwapAxis", 
      "name": "node_136", 
      "attrs": {
        "__profiler_scope__": "<unk>:", 
        "dim1": "1", 
        "dim2": "2"
      }, 
      "inputs": [[187, 0, 0]]
    }, 
    {
      "op": "_npx_reshape", 
      "name": "node_132", 
      "attrs": {
        "__profiler_scope__": "<unk>:", 
        "newshape": "(-2, -2, 12, -1)"
      }, 
      "inputs": [[186, 1, 0]]
    }, 
    {
      "op": "SwapAxis", 
      "name": "node_137", 
      "attrs": {
        "__profiler_scope__": "<unk>:", 
        "dim1": "1", 
        "dim2": "2"
      }, 
      "inputs": [[189, 0, 0]]
    }, 
    {
      "op": "batch_dot", 
      "name": "node_138", 
      "attrs": {
        "__profiler_scope__": "<unk>:", 
        "transpose_b": "True"
      }, 
      "inputs": [[188, 0, 0], [190, 0, 0]]
    }, 
    {
      "op": "expand_dims", 
      "name": "node_134", 
      "attrs": {
        "__profiler_scope__": "<unk>:", 
        "axis": "1"
      }, 
      "inputs": [[31, 0, 0]]
    }, 
    {
      "op": "Cast", 
      "name": "node_135", 
      "attrs": {
        "__profiler_scope__": "<unk>:", 
        "dtype": "bool"
      }, 
      "inputs": [[192, 0, 0]]
    }, 
    {
      "op": "Cast", 
      "name": "node_139", 
      "attrs": {
        "__profiler_scope__": "<unk>:", 
        "dtype": "bool"
      }, 
      "inputs": [[193, 0, 0]]
    }, 
    {
      "op": "masked_softmax", 
      "name": "node_140", 
      "attrs": {
        "__profiler_scope__": "<unk>:", 
        "axis": "-1", 
        "temperature": "8.0"
      }, 
      "inputs": [[191, 0, 0], [194, 0, 0]]
    }, 
    {
      "op": "Dropout", 
      "name": "node_141", 
      "attrs": {
        "__profiler_scope__": "<unk>:", 
        "p": "0.1"
      }, 
      "inputs": [[195, 0, 0]]
    }, 
    {
      "op": "_npx_reshape", 
      "name": "node_133", 
      "attrs": {
        "__profiler_scope__": "<unk>:", 
        "newshape": "(-2, -2, 12, -1)"
      }, 
      "inputs": [[186, 2, 0]]
    }, 
    {
      "op": "SwapAxis", 
      "name": "node_142", 
      "attrs": {
        "__profiler_scope__": "<unk>:", 
        "dim1": "1", 
        "dim2": "2"
      }, 
      "inputs": [[197, 0, 0]]
    }, 
    {
      "op": "batch_dot", 
      "name": "node_143", 
      "attrs": {"__profiler_scope__": "<unk>:"}, 
      "inputs": [[196, 0, 0], [198, 0, 0]]
    }, 
    {
      "op": "_npi_transpose", 
      "name": "node_144", 
      "attrs": {"axes": "[0,2,1,3]"}, 
      "inputs": [[199, 0, 0]]
    }, 
    {
      "op": "_npx_reshape", 
      "name": "node_145", 
      "attrs": {
        "__profiler_scope__": "<unk>:", 
        "newshape": "(-2, -2, -1)"
      }, 
      "inputs": [[200, 0, 0]]
    }, 
    {
      "op": "null", 
      "name": "encoder.all_layers.4.attention_proj.weight", 
      "attrs": {
        "__dtype__": "0", 
        "__init__": "[\"truncnorm\", {}]", 
        "__lr_mult__": "1.0", 
        "__profiler_scope__": "<unk>:", 
        "__shape__": "(768, 768)", 
        "__storage_type__": "0", 
        "__wd_mult__": "1.0"
      }, 
      "inputs": []
    }, 
    {
      "op": "null", 
      "name": "encoder.all_layers.4.attention_proj.bias", 
      "attrs": {
        "__dtype__": "0", 
        "__init__": "[\"zero\", {}]", 
        "__lr_mult__": "1.0", 
        "__profiler_scope__": "<unk>:", 
        "__shape__": "(768,)", 
        "__storage_type__": "0", 
        "__wd_mult__": "1.0"
      }, 
      "inputs": []
    }, 
    {
      "op": "FullyConnected", 
      "name": "node_146", 
      "attrs": {
        "__profiler_scope__": "<unk>:", 
        "flatten": "False", 
        "no_bias": "False", 
        "num_hidden": "768"
      }, 
      "inputs": [[201, 0, 0], [202, 0, 0], [203, 0, 0]]
    }, 
    {
      "op": "Dropout", 
      "name": "node_147", 
      "attrs": {
        "__profiler_scope__": "<unk>:", 
        "axes": "()", 
        "cudnn_off": "False", 
        "p": "0.1"
      }, 
      "inputs": [[204, 0, 0]]
    }, 
    {
      "op": "_npi_add", 
      "name": "node_148", 
      "inputs": [[205, 0, 0], [182, 0, 0]]
    }, 
    {
      "op": "null", 
      "name": "encoder.all_layers.4.layer_norm.gamma", 
      "attrs": {
        "__dtype__": "0", 
        "__init__": "ones", 
        "__lr_mult__": "1.0", 
        "__profiler_scope__": "<unk>:", 
        "__shape__": "(768,)", 
        "__storage_type__": "0", 
        "__wd_mult__": "1.0"
      }, 
      "inputs": []
    }, 
    {
      "op": "null", 
      "name": "encoder.all_layers.4.layer_norm.beta", 
      "attrs": {
        "__dtype__": "0", 
        "__init__": "zeros", 
        "__lr_mult__": "1.0", 
        "__profiler_scope__": "<unk>:", 
        "__shape__": "(768,)", 
        "__storage_type__": "0", 
        "__wd_mult__": "1.0"
      }, 
      "inputs": []
    }, 
    {
      "op": "LayerNorm", 
      "name": "node_149", 
      "attrs": {
        "__profiler_scope__": "<unk>:", 
        "axis": "-1", 
        "eps": "1e-05"
      }, 
      "inputs": [[206, 0, 0], [207, 0, 0], [208, 0, 0]]
    }, 
    {
      "op": "null", 
      "name": "encoder.all_layers.4.ffn.ffn_1.weight", 
      "attrs": {
        "__dtype__": "0", 
        "__init__": "[\"truncnorm\", {}]", 
        "__lr_mult__": "1.0", 
        "__profiler_scope__": "<unk>:", 
        "__shape__": "(3072, 768)", 
        "__storage_type__": "0", 
        "__wd_mult__": "1.0"
      }, 
      "inputs": []
    }, 
    {
      "op": "null", 
      "name": "encoder.all_layers.4.ffn.ffn_1.bias", 
      "attrs": {
        "__dtype__": "0", 
        "__init__": "[\"zero\", {}]", 
        "__lr_mult__": "1.0", 
        "__profiler_scope__": "<unk>:", 
        "__shape__": "(3072,)", 
        "__storage_type__": "0", 
        "__wd_mult__": "1.0"
      }, 
      "inputs": []
    }, 
    {
      "op": "FullyConnected", 
      "name": "node_150", 
      "attrs": {
        "__profiler_scope__": "<unk>:", 
        "flatten": "False", 
        "no_bias": "False", 
        "num_hidden": "3072"
      }, 
      "inputs": [[209, 0, 0], [210, 0, 0], [211, 0, 0]]
    }, 
    {
      "op": "LeakyReLU", 
      "name": "node_151", 
      "attrs": {
        "__profiler_scope__": "<unk>:", 
        "act_type": "gelu"
      }, 
      "inputs": [[212, 0, 0]]
    }, 
    {
      "op": "_npi_copy", 
      "name": "node_152", 
      "inputs": [[213, 0, 0]]
    }, 
    {
      "op": "null", 
      "name": "encoder.all_layers.4.ffn.ffn_2.weight", 
      "attrs": {
        "__dtype__": "0", 
        "__init__": "[\"truncnorm\", {}]", 
        "__lr_mult__": "1.0", 
        "__profiler_scope__": "<unk>:", 
        "__shape__": "(768, 3072)", 
        "__storage_type__": "0", 
        "__wd_mult__": "1.0"
      }, 
      "inputs": []
    }, 
    {
      "op": "null", 
      "name": "encoder.all_layers.4.ffn.ffn_2.bias", 
      "attrs": {
        "__dtype__": "0", 
        "__init__": "[\"zero\", {}]", 
        "__lr_mult__": "1.0", 
        "__profiler_scope__": "<unk>:", 
        "__shape__": "(768,)", 
        "__storage_type__": "0", 
        "__wd_mult__": "1.0"
      }, 
      "inputs": []
    }, 
    {
      "op": "FullyConnected", 
      "name": "node_153", 
      "attrs": {
        "__profiler_scope__": "<unk>:", 
        "flatten": "False", 
        "no_bias": "False", 
        "num_hidden": "768"
      }, 
      "inputs": [[214, 0, 0], [215, 0, 0], [216, 0, 0]]
    }, 
    {
      "op": "Dropout", 
      "name": "node_154", 
      "attrs": {
        "__profiler_scope__": "<unk>:", 
        "axes": "()", 
        "cudnn_off": "False", 
        "p": "0.1"
      }, 
      "inputs": [[217, 0, 0]]
    }, 
    {
      "op": "_npi_add", 
      "name": "node_155", 
      "inputs": [[218, 0, 0], [209, 0, 0]]
    }, 
    {
      "op": "null", 
      "name": "encoder.all_layers.4.ffn.layer_norm.gamma", 
      "attrs": {
        "__dtype__": "0", 
        "__init__": "ones", 
        "__lr_mult__": "1.0", 
        "__profiler_scope__": "<unk>:", 
        "__shape__": "(768,)", 
        "__storage_type__": "0", 
        "__wd_mult__": "1.0"
      }, 
      "inputs": []
    }, 
    {
      "op": "null", 
      "name": "encoder.all_layers.4.ffn.layer_norm.beta", 
      "attrs": {
        "__dtype__": "0", 
        "__init__": "zeros", 
        "__lr_mult__": "1.0", 
        "__profiler_scope__": "<unk>:", 
        "__shape__": "(768,)", 
        "__storage_type__": "0", 
        "__wd_mult__": "1.0"
      }, 
      "inputs": []
    }, 
    {
      "op": "LayerNorm", 
      "name": "node_156", 
      "attrs": {
        "__profiler_scope__": "<unk>:", 
        "axis": "-1", 
        "eps": "1e-05"
      }, 
      "inputs": [[219, 0, 0], [220, 0, 0], [221, 0, 0]]
    }, 
    {
      "op": "null", 
      "name": "encoder.all_layers.5.attn_qkv.weight", 
      "attrs": {
        "__dtype__": "0", 
        "__init__": "[\"truncnorm\", {}]", 
        "__lr_mult__": "1.0", 
        "__profiler_scope__": "<unk>:", 
        "__shape__": "(2304, 768)", 
        "__storage_type__": "0", 
        "__wd_mult__": "1.0"
      }, 
      "inputs": []
    }, 
    {
      "op": "null", 
      "name": "encoder.all_layers.5.attn_qkv.bias", 
      "attrs": {
        "__dtype__": "0", 
        "__init__": "[\"zero\", {}]", 
        "__lr_mult__": "1.0", 
        "__profiler_scope__": "<unk>:", 
        "__shape__": "(2304,)", 
        "__storage_type__": "0", 
        "__wd_mult__": "1.0"
      }, 
      "inputs": []
    }, 
    {
      "op": "FullyConnected", 
      "name": "node_157", 
      "attrs": {
        "__profiler_scope__": "<unk>:", 
        "flatten": "False", 
        "no_bias": "False", 
        "num_hidden": "2304"
      }, 
      "inputs": [[222, 0, 0], [223, 0, 0], [224, 0, 0]]
    }, 
    {
      "op": "_split_v2", 
      "name": "node_158", 
      "attrs": {
        "axis": "-1", 
        "indices": "[]", 
        "sections": "3", 
        "squeeze_axis": "0"
      }, 
      "inputs": [[225, 0, 0]]
    }, 
    {
      "op": "_npx_reshape", 
      "name": "node_159", 
      "attrs": {
        "__profiler_scope__": "<unk>:", 
        "newshape": "(-2, -2, 12, -1)"
      }, 
      "inputs": [[226, 0, 0]]
    }, 
    {
      "op": "SwapAxis", 
      "name": "node_164", 
      "attrs": {
        "__profiler_scope__": "<unk>:", 
        "dim1": "1", 
        "dim2": "2"
      }, 
      "inputs": [[227, 0, 0]]
    }, 
    {
      "op": "_npx_reshape", 
      "name": "node_160", 
      "attrs": {
        "__profiler_scope__": "<unk>:", 
        "newshape": "(-2, -2, 12, -1)"
      }, 
      "inputs": [[226, 1, 0]]
    }, 
    {
      "op": "SwapAxis", 
      "name": "node_165", 
      "attrs": {
        "__profiler_scope__": "<unk>:", 
        "dim1": "1", 
        "dim2": "2"
      }, 
      "inputs": [[229, 0, 0]]
    }, 
    {
      "op": "batch_dot", 
      "name": "node_166", 
      "attrs": {
        "__profiler_scope__": "<unk>:", 
        "transpose_b": "True"
      }, 
      "inputs": [[228, 0, 0], [230, 0, 0]]
    }, 
    {
      "op": "expand_dims", 
      "name": "node_162", 
      "attrs": {
        "__profiler_scope__": "<unk>:", 
        "axis": "1"
      }, 
      "inputs": [[31, 0, 0]]
    }, 
    {
      "op": "Cast", 
      "name": "node_163", 
      "attrs": {
        "__profiler_scope__": "<unk>:", 
        "dtype": "bool"
      }, 
      "inputs": [[232, 0, 0]]
    }, 
    {
      "op": "Cast", 
      "name": "node_167", 
      "attrs": {
        "__profiler_scope__": "<unk>:", 
        "dtype": "bool"
      }, 
      "inputs": [[233, 0, 0]]
    }, 
    {
      "op": "masked_softmax", 
      "name": "node_168", 
      "attrs": {
        "__profiler_scope__": "<unk>:", 
        "axis": "-1", 
        "temperature": "8.0"
      }, 
      "inputs": [[231, 0, 0], [234, 0, 0]]
    }, 
    {
      "op": "Dropout", 
      "name": "node_169", 
      "attrs": {
        "__profiler_scope__": "<unk>:", 
        "p": "0.1"
      }, 
      "inputs": [[235, 0, 0]]
    }, 
    {
      "op": "_npx_reshape", 
      "name": "node_161", 
      "attrs": {
        "__profiler_scope__": "<unk>:", 
        "newshape": "(-2, -2, 12, -1)"
      }, 
      "inputs": [[226, 2, 0]]
    }, 
    {
      "op": "SwapAxis", 
      "name": "node_170", 
      "attrs": {
        "__profiler_scope__": "<unk>:", 
        "dim1": "1", 
        "dim2": "2"
      }, 
      "inputs": [[237, 0, 0]]
    }, 
    {
      "op": "batch_dot", 
      "name": "node_171", 
      "attrs": {"__profiler_scope__": "<unk>:"}, 
      "inputs": [[236, 0, 0], [238, 0, 0]]
    }, 
    {
      "op": "_npi_transpose", 
      "name": "node_172", 
      "attrs": {"axes": "[0,2,1,3]"}, 
      "inputs": [[239, 0, 0]]
    }, 
    {
      "op": "_npx_reshape", 
      "name": "node_173", 
      "attrs": {
        "__profiler_scope__": "<unk>:", 
        "newshape": "(-2, -2, -1)"
      }, 
      "inputs": [[240, 0, 0]]
    }, 
    {
      "op": "null", 
      "name": "encoder.all_layers.5.attention_proj.weight", 
      "attrs": {
        "__dtype__": "0", 
        "__init__": "[\"truncnorm\", {}]", 
        "__lr_mult__": "1.0", 
        "__profiler_scope__": "<unk>:", 
        "__shape__": "(768, 768)", 
        "__storage_type__": "0", 
        "__wd_mult__": "1.0"
      }, 
      "inputs": []
    }, 
    {
      "op": "null", 
      "name": "encoder.all_layers.5.attention_proj.bias", 
      "attrs": {
        "__dtype__": "0", 
        "__init__": "[\"zero\", {}]", 
        "__lr_mult__": "1.0", 
        "__profiler_scope__": "<unk>:", 
        "__shape__": "(768,)", 
        "__storage_type__": "0", 
        "__wd_mult__": "1.0"
      }, 
      "inputs": []
    }, 
    {
      "op": "FullyConnected", 
      "name": "node_174", 
      "attrs": {
        "__profiler_scope__": "<unk>:", 
        "flatten": "False", 
        "no_bias": "False", 
        "num_hidden": "768"
      }, 
      "inputs": [[241, 0, 0], [242, 0, 0], [243, 0, 0]]
    }, 
    {
      "op": "Dropout", 
      "name": "node_175", 
      "attrs": {
        "__profiler_scope__": "<unk>:", 
        "axes": "()", 
        "cudnn_off": "False", 
        "p": "0.1"
      }, 
      "inputs": [[244, 0, 0]]
    }, 
    {
      "op": "_npi_add", 
      "name": "node_176", 
      "inputs": [[245, 0, 0], [222, 0, 0]]
    }, 
    {
      "op": "null", 
      "name": "encoder.all_layers.5.layer_norm.gamma", 
      "attrs": {
        "__dtype__": "0", 
        "__init__": "ones", 
        "__lr_mult__": "1.0", 
        "__profiler_scope__": "<unk>:", 
        "__shape__": "(768,)", 
        "__storage_type__": "0", 
        "__wd_mult__": "1.0"
      }, 
      "inputs": []
    }, 
    {
      "op": "null", 
      "name": "encoder.all_layers.5.layer_norm.beta", 
      "attrs": {
        "__dtype__": "0", 
        "__init__": "zeros", 
        "__lr_mult__": "1.0", 
        "__profiler_scope__": "<unk>:", 
        "__shape__": "(768,)", 
        "__storage_type__": "0", 
        "__wd_mult__": "1.0"
      }, 
      "inputs": []
    }, 
    {
      "op": "LayerNorm", 
      "name": "node_177", 
      "attrs": {
        "__profiler_scope__": "<unk>:", 
        "axis": "-1", 
        "eps": "1e-05"
      }, 
      "inputs": [[246, 0, 0], [247, 0, 0], [248, 0, 0]]
    }, 
    {
      "op": "null", 
      "name": "encoder.all_layers.5.ffn.ffn_1.weight", 
      "attrs": {
        "__dtype__": "0", 
        "__init__": "[\"truncnorm\", {}]", 
        "__lr_mult__": "1.0", 
        "__profiler_scope__": "<unk>:", 
        "__shape__": "(3072, 768)", 
        "__storage_type__": "0", 
        "__wd_mult__": "1.0"
      }, 
      "inputs": []
    }, 
    {
      "op": "null", 
      "name": "encoder.all_layers.5.ffn.ffn_1.bias", 
      "attrs": {
        "__dtype__": "0", 
        "__init__": "[\"zero\", {}]", 
        "__lr_mult__": "1.0", 
        "__profiler_scope__": "<unk>:", 
        "__shape__": "(3072,)", 
        "__storage_type__": "0", 
        "__wd_mult__": "1.0"
      }, 
      "inputs": []
    }, 
    {
      "op": "FullyConnected", 
      "name": "node_178", 
      "attrs": {
        "__profiler_scope__": "<unk>:", 
        "flatten": "False", 
        "no_bias": "False", 
        "num_hidden": "3072"
      }, 
      "inputs": [[249, 0, 0], [250, 0, 0], [251, 0, 0]]
    }, 
    {
      "op": "LeakyReLU", 
      "name": "node_179", 
      "attrs": {
        "__profiler_scope__": "<unk>:", 
        "act_type": "gelu"
      }, 
      "inputs": [[252, 0, 0]]
    }, 
    {
      "op": "_npi_copy", 
      "name": "node_180", 
      "inputs": [[253, 0, 0]]
    }, 
    {
      "op": "null", 
      "name": "encoder.all_layers.5.ffn.ffn_2.weight", 
      "attrs": {
        "__dtype__": "0", 
        "__init__": "[\"truncnorm\", {}]", 
        "__lr_mult__": "1.0", 
        "__profiler_scope__": "<unk>:", 
        "__shape__": "(768, 3072)", 
        "__storage_type__": "0", 
        "__wd_mult__": "1.0"
      }, 
      "inputs": []
    }, 
    {
      "op": "null", 
      "name": "encoder.all_layers.5.ffn.ffn_2.bias", 
      "attrs": {
        "__dtype__": "0", 
        "__init__": "[\"zero\", {}]", 
        "__lr_mult__": "1.0", 
        "__profiler_scope__": "<unk>:", 
        "__shape__": "(768,)", 
        "__storage_type__": "0", 
        "__wd_mult__": "1.0"
      }, 
      "inputs": []
    }, 
    {
      "op": "FullyConnected", 
      "name": "node_181", 
      "attrs": {
        "__profiler_scope__": "<unk>:", 
        "flatten": "False", 
        "no_bias": "False", 
        "num_hidden": "768"
      }, 
      "inputs": [[254, 0, 0], [255, 0, 0], [256, 0, 0]]
    }, 
    {
      "op": "Dropout", 
      "name": "node_182", 
      "attrs": {
        "__profiler_scope__": "<unk>:", 
        "axes": "()", 
        "cudnn_off": "False", 
        "p": "0.1"
      }, 
      "inputs": [[257, 0, 0]]
    }, 
    {
      "op": "_npi_add", 
      "name": "node_183", 
      "inputs": [[258, 0, 0], [249, 0, 0]]
    }, 
    {
      "op": "null", 
      "name": "encoder.all_layers.5.ffn.layer_norm.gamma", 
      "attrs": {
        "__dtype__": "0", 
        "__init__": "ones", 
        "__lr_mult__": "1.0", 
        "__profiler_scope__": "<unk>:", 
        "__shape__": "(768,)", 
        "__storage_type__": "0", 
        "__wd_mult__": "1.0"
      }, 
      "inputs": []
    }, 
    {
      "op": "null", 
      "name": "encoder.all_layers.5.ffn.layer_norm.beta", 
      "attrs": {
        "__dtype__": "0", 
        "__init__": "zeros", 
        "__lr_mult__": "1.0", 
        "__profiler_scope__": "<unk>:", 
        "__shape__": "(768,)", 
        "__storage_type__": "0", 
        "__wd_mult__": "1.0"
      }, 
      "inputs": []
    }, 
    {
      "op": "LayerNorm", 
      "name": "node_184", 
      "attrs": {
        "__profiler_scope__": "<unk>:", 
        "axis": "-1", 
        "eps": "1e-05"
      }, 
      "inputs": [[259, 0, 0], [260, 0, 0], [261, 0, 0]]
    }, 
    {
      "op": "null", 
      "name": "encoder.all_layers.6.attn_qkv.weight", 
      "attrs": {
        "__dtype__": "0", 
        "__init__": "[\"truncnorm\", {}]", 
        "__lr_mult__": "1.0", 
        "__profiler_scope__": "<unk>:", 
        "__shape__": "(2304, 768)", 
        "__storage_type__": "0", 
        "__wd_mult__": "1.0"
      }, 
      "inputs": []
    }, 
    {
      "op": "null", 
      "name": "encoder.all_layers.6.attn_qkv.bias", 
      "attrs": {
        "__dtype__": "0", 
        "__init__": "[\"zero\", {}]", 
        "__lr_mult__": "1.0", 
        "__profiler_scope__": "<unk>:", 
        "__shape__": "(2304,)", 
        "__storage_type__": "0", 
        "__wd_mult__": "1.0"
      }, 
      "inputs": []
    }, 
    {
      "op": "FullyConnected", 
      "name": "node_185", 
      "attrs": {
        "__profiler_scope__": "<unk>:", 
        "flatten": "False", 
        "no_bias": "False", 
        "num_hidden": "2304"
      }, 
      "inputs": [[262, 0, 0], [263, 0, 0], [264, 0, 0]]
    }, 
    {
      "op": "_split_v2", 
      "name": "node_186", 
      "attrs": {
        "axis": "-1", 
        "indices": "[]", 
        "sections": "3", 
        "squeeze_axis": "0"
      }, 
      "inputs": [[265, 0, 0]]
    }, 
    {
      "op": "_npx_reshape", 
      "name": "node_187", 
      "attrs": {
        "__profiler_scope__": "<unk>:", 
        "newshape": "(-2, -2, 12, -1)"
      }, 
      "inputs": [[266, 0, 0]]
    }, 
    {
      "op": "SwapAxis", 
      "name": "node_192", 
      "attrs": {
        "__profiler_scope__": "<unk>:", 
        "dim1": "1", 
        "dim2": "2"
      }, 
      "inputs": [[267, 0, 0]]
    }, 
    {
      "op": "_npx_reshape", 
      "name": "node_188", 
      "attrs": {
        "__profiler_scope__": "<unk>:", 
        "newshape": "(-2, -2, 12, -1)"
      }, 
      "inputs": [[266, 1, 0]]
    }, 
    {
      "op": "SwapAxis", 
      "name": "node_193", 
      "attrs": {
        "__profiler_scope__": "<unk>:", 
        "dim1": "1", 
        "dim2": "2"
      }, 
      "inputs": [[269, 0, 0]]
    }, 
    {
      "op": "batch_dot", 
      "name": "node_194", 
      "attrs": {
        "__profiler_scope__": "<unk>:", 
        "transpose_b": "True"
      }, 
      "inputs": [[268, 0, 0], [270, 0, 0]]
    }, 
    {
      "op": "expand_dims", 
      "name": "node_190", 
      "attrs": {
        "__profiler_scope__": "<unk>:", 
        "axis": "1"
      }, 
      "inputs": [[31, 0, 0]]
    }, 
    {
      "op": "Cast", 
      "name": "node_191", 
      "attrs": {
        "__profiler_scope__": "<unk>:", 
        "dtype": "bool"
      }, 
      "inputs": [[272, 0, 0]]
    }, 
    {
      "op": "Cast", 
      "name": "node_195", 
      "attrs": {
        "__profiler_scope__": "<unk>:", 
        "dtype": "bool"
      }, 
      "inputs": [[273, 0, 0]]
    }, 
    {
      "op": "masked_softmax", 
      "name": "node_196", 
      "attrs": {
        "__profiler_scope__": "<unk>:", 
        "axis": "-1", 
        "temperature": "8.0"
      }, 
      "inputs": [[271, 0, 0], [274, 0, 0]]
    }, 
    {
      "op": "Dropout", 
      "name": "node_197", 
      "attrs": {
        "__profiler_scope__": "<unk>:", 
        "p": "0.1"
      }, 
      "inputs": [[275, 0, 0]]
    }, 
    {
      "op": "_npx_reshape", 
      "name": "node_189", 
      "attrs": {
        "__profiler_scope__": "<unk>:", 
        "newshape": "(-2, -2, 12, -1)"
      }, 
      "inputs": [[266, 2, 0]]
    }, 
    {
      "op": "SwapAxis", 
      "name": "node_198", 
      "attrs": {
        "__profiler_scope__": "<unk>:", 
        "dim1": "1", 
        "dim2": "2"
      }, 
      "inputs": [[277, 0, 0]]
    }, 
    {
      "op": "batch_dot", 
      "name": "node_199", 
      "attrs": {"__profiler_scope__": "<unk>:"}, 
      "inputs": [[276, 0, 0], [278, 0, 0]]
    }, 
    {
      "op": "_npi_transpose", 
      "name": "node_200", 
      "attrs": {"axes": "[0,2,1,3]"}, 
      "inputs": [[279, 0, 0]]
    }, 
    {
      "op": "_npx_reshape", 
      "name": "node_201", 
      "attrs": {
        "__profiler_scope__": "<unk>:", 
        "newshape": "(-2, -2, -1)"
      }, 
      "inputs": [[280, 0, 0]]
    }, 
    {
      "op": "null", 
      "name": "encoder.all_layers.6.attention_proj.weight", 
      "attrs": {
        "__dtype__": "0", 
        "__init__": "[\"truncnorm\", {}]", 
        "__lr_mult__": "1.0", 
        "__profiler_scope__": "<unk>:", 
        "__shape__": "(768, 768)", 
        "__storage_type__": "0", 
        "__wd_mult__": "1.0"
      }, 
      "inputs": []
    }, 
    {
      "op": "null", 
      "name": "encoder.all_layers.6.attention_proj.bias", 
      "attrs": {
        "__dtype__": "0", 
        "__init__": "[\"zero\", {}]", 
        "__lr_mult__": "1.0", 
        "__profiler_scope__": "<unk>:", 
        "__shape__": "(768,)", 
        "__storage_type__": "0", 
        "__wd_mult__": "1.0"
      }, 
      "inputs": []
    }, 
    {
      "op": "FullyConnected", 
      "name": "node_202", 
      "attrs": {
        "__profiler_scope__": "<unk>:", 
        "flatten": "False", 
        "no_bias": "False", 
        "num_hidden": "768"
      }, 
      "inputs": [[281, 0, 0], [282, 0, 0], [283, 0, 0]]
    }, 
    {
      "op": "Dropout", 
      "name": "node_203", 
      "attrs": {
        "__profiler_scope__": "<unk>:", 
        "axes": "()", 
        "cudnn_off": "False", 
        "p": "0.1"
      }, 
      "inputs": [[284, 0, 0]]
    }, 
    {
      "op": "_npi_add", 
      "name": "node_204", 
      "inputs": [[285, 0, 0], [262, 0, 0]]
    }, 
    {
      "op": "null", 
      "name": "encoder.all_layers.6.layer_norm.gamma", 
      "attrs": {
        "__dtype__": "0", 
        "__init__": "ones", 
        "__lr_mult__": "1.0", 
        "__profiler_scope__": "<unk>:", 
        "__shape__": "(768,)", 
        "__storage_type__": "0", 
        "__wd_mult__": "1.0"
      }, 
      "inputs": []
    }, 
    {
      "op": "null", 
      "name": "encoder.all_layers.6.layer_norm.beta", 
      "attrs": {
        "__dtype__": "0", 
        "__init__": "zeros", 
        "__lr_mult__": "1.0", 
        "__profiler_scope__": "<unk>:", 
        "__shape__": "(768,)", 
        "__storage_type__": "0", 
        "__wd_mult__": "1.0"
      }, 
      "inputs": []
    }, 
    {
      "op": "LayerNorm", 
      "name": "node_205", 
      "attrs": {
        "__profiler_scope__": "<unk>:", 
        "axis": "-1", 
        "eps": "1e-05"
      }, 
      "inputs": [[286, 0, 0], [287, 0, 0], [288, 0, 0]]
    }, 
    {
      "op": "null", 
      "name": "encoder.all_layers.6.ffn.ffn_1.weight", 
      "attrs": {
        "__dtype__": "0", 
        "__init__": "[\"truncnorm\", {}]", 
        "__lr_mult__": "1.0", 
        "__profiler_scope__": "<unk>:", 
        "__shape__": "(3072, 768)", 
        "__storage_type__": "0", 
        "__wd_mult__": "1.0"
      }, 
      "inputs": []
    }, 
    {
      "op": "null", 
      "name": "encoder.all_layers.6.ffn.ffn_1.bias", 
      "attrs": {
        "__dtype__": "0", 
        "__init__": "[\"zero\", {}]", 
        "__lr_mult__": "1.0", 
        "__profiler_scope__": "<unk>:", 
        "__shape__": "(3072,)", 
        "__storage_type__": "0", 
        "__wd_mult__": "1.0"
      }, 
      "inputs": []
    }, 
    {
      "op": "FullyConnected", 
      "name": "node_206", 
      "attrs": {
        "__profiler_scope__": "<unk>:", 
        "flatten": "False", 
        "no_bias": "False", 
        "num_hidden": "3072"
      }, 
      "inputs": [[289, 0, 0], [290, 0, 0], [291, 0, 0]]
    }, 
    {
      "op": "LeakyReLU", 
      "name": "node_207", 
      "attrs": {
        "__profiler_scope__": "<unk>:", 
        "act_type": "gelu"
      }, 
      "inputs": [[292, 0, 0]]
    }, 
    {
      "op": "_npi_copy", 
      "name": "node_208", 
      "inputs": [[293, 0, 0]]
    }, 
    {
      "op": "null", 
      "name": "encoder.all_layers.6.ffn.ffn_2.weight", 
      "attrs": {
        "__dtype__": "0", 
        "__init__": "[\"truncnorm\", {}]", 
        "__lr_mult__": "1.0", 
        "__profiler_scope__": "<unk>:", 
        "__shape__": "(768, 3072)", 
        "__storage_type__": "0", 
        "__wd_mult__": "1.0"
      }, 
      "inputs": []
    }, 
    {
      "op": "null", 
      "name": "encoder.all_layers.6.ffn.ffn_2.bias", 
      "attrs": {
        "__dtype__": "0", 
        "__init__": "[\"zero\", {}]", 
        "__lr_mult__": "1.0", 
        "__profiler_scope__": "<unk>:", 
        "__shape__": "(768,)", 
        "__storage_type__": "0", 
        "__wd_mult__": "1.0"
      }, 
      "inputs": []
    }, 
    {
      "op": "FullyConnected", 
      "name": "node_209", 
      "attrs": {
        "__profiler_scope__": "<unk>:", 
        "flatten": "False", 
        "no_bias": "False", 
        "num_hidden": "768"
      }, 
      "inputs": [[294, 0, 0], [295, 0, 0], [296, 0, 0]]
    }, 
    {
      "op": "Dropout", 
      "name": "node_210", 
      "attrs": {
        "__profiler_scope__": "<unk>:", 
        "axes": "()", 
        "cudnn_off": "False", 
        "p": "0.1"
      }, 
      "inputs": [[297, 0, 0]]
    }, 
    {
      "op": "_npi_add", 
      "name": "node_211", 
      "inputs": [[298, 0, 0], [289, 0, 0]]
    }, 
    {
      "op": "null", 
      "name": "encoder.all_layers.6.ffn.layer_norm.gamma", 
      "attrs": {
        "__dtype__": "0", 
        "__init__": "ones", 
        "__lr_mult__": "1.0", 
        "__profiler_scope__": "<unk>:", 
        "__shape__": "(768,)", 
        "__storage_type__": "0", 
        "__wd_mult__": "1.0"
      }, 
      "inputs": []
    }, 
    {
      "op": "null", 
      "name": "encoder.all_layers.6.ffn.layer_norm.beta", 
      "attrs": {
        "__dtype__": "0", 
        "__init__": "zeros", 
        "__lr_mult__": "1.0", 
        "__profiler_scope__": "<unk>:", 
        "__shape__": "(768,)", 
        "__storage_type__": "0", 
        "__wd_mult__": "1.0"
      }, 
      "inputs": []
    }, 
    {
      "op": "LayerNorm", 
      "name": "node_212", 
      "attrs": {
        "__profiler_scope__": "<unk>:", 
        "axis": "-1", 
        "eps": "1e-05"
      }, 
      "inputs": [[299, 0, 0], [300, 0, 0], [301, 0, 0]]
    }, 
    {
      "op": "null", 
      "name": "encoder.all_layers.7.attn_qkv.weight", 
      "attrs": {
        "__dtype__": "0", 
        "__init__": "[\"truncnorm\", {}]", 
        "__lr_mult__": "1.0", 
        "__profiler_scope__": "<unk>:", 
        "__shape__": "(2304, 768)", 
        "__storage_type__": "0", 
        "__wd_mult__": "1.0"
      }, 
      "inputs": []
    }, 
    {
      "op": "null", 
      "name": "encoder.all_layers.7.attn_qkv.bias", 
      "attrs": {
        "__dtype__": "0", 
        "__init__": "[\"zero\", {}]", 
        "__lr_mult__": "1.0", 
        "__profiler_scope__": "<unk>:", 
        "__shape__": "(2304,)", 
        "__storage_type__": "0", 
        "__wd_mult__": "1.0"
      }, 
      "inputs": []
    }, 
    {
      "op": "FullyConnected", 
      "name": "node_213", 
      "attrs": {
        "__profiler_scope__": "<unk>:", 
        "flatten": "False", 
        "no_bias": "False", 
        "num_hidden": "2304"
      }, 
      "inputs": [[302, 0, 0], [303, 0, 0], [304, 0, 0]]
    }, 
    {
      "op": "_split_v2", 
      "name": "node_214", 
      "attrs": {
        "axis": "-1", 
        "indices": "[]", 
        "sections": "3", 
        "squeeze_axis": "0"
      }, 
      "inputs": [[305, 0, 0]]
    }, 
    {
      "op": "_npx_reshape", 
      "name": "node_215", 
      "attrs": {
        "__profiler_scope__": "<unk>:", 
        "newshape": "(-2, -2, 12, -1)"
      }, 
      "inputs": [[306, 0, 0]]
    }, 
    {
      "op": "SwapAxis", 
      "name": "node_220", 
      "attrs": {
        "__profiler_scope__": "<unk>:", 
        "dim1": "1", 
        "dim2": "2"
      }, 
      "inputs": [[307, 0, 0]]
    }, 
    {
      "op": "_npx_reshape", 
      "name": "node_216", 
      "attrs": {
        "__profiler_scope__": "<unk>:", 
        "newshape": "(-2, -2, 12, -1)"
      }, 
      "inputs": [[306, 1, 0]]
    }, 
    {
      "op": "SwapAxis", 
      "name": "node_221", 
      "attrs": {
        "__profiler_scope__": "<unk>:", 
        "dim1": "1", 
        "dim2": "2"
      }, 
      "inputs": [[309, 0, 0]]
    }, 
    {
      "op": "batch_dot", 
      "name": "node_222", 
      "attrs": {
        "__profiler_scope__": "<unk>:", 
        "transpose_b": "True"
      }, 
      "inputs": [[308, 0, 0], [310, 0, 0]]
    }, 
    {
      "op": "expand_dims", 
      "name": "node_218", 
      "attrs": {
        "__profiler_scope__": "<unk>:", 
        "axis": "1"
      }, 
      "inputs": [[31, 0, 0]]
    }, 
    {
      "op": "Cast", 
      "name": "node_219", 
      "attrs": {
        "__profiler_scope__": "<unk>:", 
        "dtype": "bool"
      }, 
      "inputs": [[312, 0, 0]]
    }, 
    {
      "op": "Cast", 
      "name": "node_223", 
      "attrs": {
        "__profiler_scope__": "<unk>:", 
        "dtype": "bool"
      }, 
      "inputs": [[313, 0, 0]]
    }, 
    {
      "op": "masked_softmax", 
      "name": "node_224", 
      "attrs": {
        "__profiler_scope__": "<unk>:", 
        "axis": "-1", 
        "temperature": "8.0"
      }, 
      "inputs": [[311, 0, 0], [314, 0, 0]]
    }, 
    {
      "op": "Dropout", 
      "name": "node_225", 
      "attrs": {
        "__profiler_scope__": "<unk>:", 
        "p": "0.1"
      }, 
      "inputs": [[315, 0, 0]]
    }, 
    {
      "op": "_npx_reshape", 
      "name": "node_217", 
      "attrs": {
        "__profiler_scope__": "<unk>:", 
        "newshape": "(-2, -2, 12, -1)"
      }, 
      "inputs": [[306, 2, 0]]
    }, 
    {
      "op": "SwapAxis", 
      "name": "node_226", 
      "attrs": {
        "__profiler_scope__": "<unk>:", 
        "dim1": "1", 
        "dim2": "2"
      }, 
      "inputs": [[317, 0, 0]]
    }, 
    {
      "op": "batch_dot", 
      "name": "node_227", 
      "attrs": {"__profiler_scope__": "<unk>:"}, 
      "inputs": [[316, 0, 0], [318, 0, 0]]
    }, 
    {
      "op": "_npi_transpose", 
      "name": "node_228", 
      "attrs": {"axes": "[0,2,1,3]"}, 
      "inputs": [[319, 0, 0]]
    }, 
    {
      "op": "_npx_reshape", 
      "name": "node_229", 
      "attrs": {
        "__profiler_scope__": "<unk>:", 
        "newshape": "(-2, -2, -1)"
      }, 
      "inputs": [[320, 0, 0]]
    }, 
    {
      "op": "null", 
      "name": "encoder.all_layers.7.attention_proj.weight", 
      "attrs": {
        "__dtype__": "0", 
        "__init__": "[\"truncnorm\", {}]", 
        "__lr_mult__": "1.0", 
        "__profiler_scope__": "<unk>:", 
        "__shape__": "(768, 768)", 
        "__storage_type__": "0", 
        "__wd_mult__": "1.0"
      }, 
      "inputs": []
    }, 
    {
      "op": "null", 
      "name": "encoder.all_layers.7.attention_proj.bias", 
      "attrs": {
        "__dtype__": "0", 
        "__init__": "[\"zero\", {}]", 
        "__lr_mult__": "1.0", 
        "__profiler_scope__": "<unk>:", 
        "__shape__": "(768,)", 
        "__storage_type__": "0", 
        "__wd_mult__": "1.0"
      }, 
      "inputs": []
    }, 
    {
      "op": "FullyConnected", 
      "name": "node_230", 
      "attrs": {
        "__profiler_scope__": "<unk>:", 
        "flatten": "False", 
        "no_bias": "False", 
        "num_hidden": "768"
      }, 
      "inputs": [[321, 0, 0], [322, 0, 0], [323, 0, 0]]
    }, 
    {
      "op": "Dropout", 
      "name": "node_231", 
      "attrs": {
        "__profiler_scope__": "<unk>:", 
        "axes": "()", 
        "cudnn_off": "False", 
        "p": "0.1"
      }, 
      "inputs": [[324, 0, 0]]
    }, 
    {
      "op": "_npi_add", 
      "name": "node_232", 
      "inputs": [[325, 0, 0], [302, 0, 0]]
    }, 
    {
      "op": "null", 
      "name": "encoder.all_layers.7.layer_norm.gamma", 
      "attrs": {
        "__dtype__": "0", 
        "__init__": "ones", 
        "__lr_mult__": "1.0", 
        "__profiler_scope__": "<unk>:", 
        "__shape__": "(768,)", 
        "__storage_type__": "0", 
        "__wd_mult__": "1.0"
      }, 
      "inputs": []
    }, 
    {
      "op": "null", 
      "name": "encoder.all_layers.7.layer_norm.beta", 
      "attrs": {
        "__dtype__": "0", 
        "__init__": "zeros", 
        "__lr_mult__": "1.0", 
        "__profiler_scope__": "<unk>:", 
        "__shape__": "(768,)", 
        "__storage_type__": "0", 
        "__wd_mult__": "1.0"
      }, 
      "inputs": []
    }, 
    {
      "op": "LayerNorm", 
      "name": "node_233", 
      "attrs": {
        "__profiler_scope__": "<unk>:", 
        "axis": "-1", 
        "eps": "1e-05"
      }, 
      "inputs": [[326, 0, 0], [327, 0, 0], [328, 0, 0]]
    }, 
    {
      "op": "null", 
      "name": "encoder.all_layers.7.ffn.ffn_1.weight", 
      "attrs": {
        "__dtype__": "0", 
        "__init__": "[\"truncnorm\", {}]", 
        "__lr_mult__": "1.0", 
        "__profiler_scope__": "<unk>:", 
        "__shape__": "(3072, 768)", 
        "__storage_type__": "0", 
        "__wd_mult__": "1.0"
      }, 
      "inputs": []
    }, 
    {
      "op": "null", 
      "name": "encoder.all_layers.7.ffn.ffn_1.bias", 
      "attrs": {
        "__dtype__": "0", 
        "__init__": "[\"zero\", {}]", 
        "__lr_mult__": "1.0", 
        "__profiler_scope__": "<unk>:", 
        "__shape__": "(3072,)", 
        "__storage_type__": "0", 
        "__wd_mult__": "1.0"
      }, 
      "inputs": []
    }, 
    {
      "op": "FullyConnected", 
      "name": "node_234", 
      "attrs": {
        "__profiler_scope__": "<unk>:", 
        "flatten": "False", 
        "no_bias": "False", 
        "num_hidden": "3072"
      }, 
      "inputs": [[329, 0, 0], [330, 0, 0], [331, 0, 0]]
    }, 
    {
      "op": "LeakyReLU", 
      "name": "node_235", 
      "attrs": {
        "__profiler_scope__": "<unk>:", 
        "act_type": "gelu"
      }, 
      "inputs": [[332, 0, 0]]
    }, 
    {
      "op": "_npi_copy", 
      "name": "node_236", 
      "inputs": [[333, 0, 0]]
    }, 
    {
      "op": "null", 
      "name": "encoder.all_layers.7.ffn.ffn_2.weight", 
      "attrs": {
        "__dtype__": "0", 
        "__init__": "[\"truncnorm\", {}]", 
        "__lr_mult__": "1.0", 
        "__profiler_scope__": "<unk>:", 
        "__shape__": "(768, 3072)", 
        "__storage_type__": "0", 
        "__wd_mult__": "1.0"
      }, 
      "inputs": []
    }, 
    {
      "op": "null", 
      "name": "encoder.all_layers.7.ffn.ffn_2.bias", 
      "attrs": {
        "__dtype__": "0", 
        "__init__": "[\"zero\", {}]", 
        "__lr_mult__": "1.0", 
        "__profiler_scope__": "<unk>:", 
        "__shape__": "(768,)", 
        "__storage_type__": "0", 
        "__wd_mult__": "1.0"
      }, 
      "inputs": []
    }, 
    {
      "op": "FullyConnected", 
      "name": "node_237", 
      "attrs": {
        "__profiler_scope__": "<unk>:", 
        "flatten": "False", 
        "no_bias": "False", 
        "num_hidden": "768"
      }, 
      "inputs": [[334, 0, 0], [335, 0, 0], [336, 0, 0]]
    }, 
    {
      "op": "Dropout", 
      "name": "node_238", 
      "attrs": {
        "__profiler_scope__": "<unk>:", 
        "axes": "()", 
        "cudnn_off": "False", 
        "p": "0.1"
      }, 
      "inputs": [[337, 0, 0]]
    }, 
    {
      "op": "_npi_add", 
      "name": "node_239", 
      "inputs": [[338, 0, 0], [329, 0, 0]]
    }, 
    {
      "op": "null", 
      "name": "encoder.all_layers.7.ffn.layer_norm.gamma", 
      "attrs": {
        "__dtype__": "0", 
        "__init__": "ones", 
        "__lr_mult__": "1.0", 
        "__profiler_scope__": "<unk>:", 
        "__shape__": "(768,)", 
        "__storage_type__": "0", 
        "__wd_mult__": "1.0"
      }, 
      "inputs": []
    }, 
    {
      "op": "null", 
      "name": "encoder.all_layers.7.ffn.layer_norm.beta", 
      "attrs": {
        "__dtype__": "0", 
        "__init__": "zeros", 
        "__lr_mult__": "1.0", 
        "__profiler_scope__": "<unk>:", 
        "__shape__": "(768,)", 
        "__storage_type__": "0", 
        "__wd_mult__": "1.0"
      }, 
      "inputs": []
    }, 
    {
      "op": "LayerNorm", 
      "name": "node_240", 
      "attrs": {
        "__profiler_scope__": "<unk>:", 
        "axis": "-1", 
        "eps": "1e-05"
      }, 
      "inputs": [[339, 0, 0], [340, 0, 0], [341, 0, 0]]
    }, 
    {
      "op": "null", 
      "name": "encoder.all_layers.8.attn_qkv.weight", 
      "attrs": {
        "__dtype__": "0", 
        "__init__": "[\"truncnorm\", {}]", 
        "__lr_mult__": "1.0", 
        "__profiler_scope__": "<unk>:", 
        "__shape__": "(2304, 768)", 
        "__storage_type__": "0", 
        "__wd_mult__": "1.0"
      }, 
      "inputs": []
    }, 
    {
      "op": "null", 
      "name": "encoder.all_layers.8.attn_qkv.bias", 
      "attrs": {
        "__dtype__": "0", 
        "__init__": "[\"zero\", {}]", 
        "__lr_mult__": "1.0", 
        "__profiler_scope__": "<unk>:", 
        "__shape__": "(2304,)", 
        "__storage_type__": "0", 
        "__wd_mult__": "1.0"
      }, 
      "inputs": []
    }, 
    {
      "op": "FullyConnected", 
      "name": "node_241", 
      "attrs": {
        "__profiler_scope__": "<unk>:", 
        "flatten": "False", 
        "no_bias": "False", 
        "num_hidden": "2304"
      }, 
      "inputs": [[342, 0, 0], [343, 0, 0], [344, 0, 0]]
    }, 
    {
      "op": "_split_v2", 
      "name": "node_242", 
      "attrs": {
        "axis": "-1", 
        "indices": "[]", 
        "sections": "3", 
        "squeeze_axis": "0"
      }, 
      "inputs": [[345, 0, 0]]
    }, 
    {
      "op": "_npx_reshape", 
      "name": "node_243", 
      "attrs": {
        "__profiler_scope__": "<unk>:", 
        "newshape": "(-2, -2, 12, -1)"
      }, 
      "inputs": [[346, 0, 0]]
    }, 
    {
      "op": "SwapAxis", 
      "name": "node_248", 
      "attrs": {
        "__profiler_scope__": "<unk>:", 
        "dim1": "1", 
        "dim2": "2"
      }, 
      "inputs": [[347, 0, 0]]
    }, 
    {
      "op": "_npx_reshape", 
      "name": "node_244", 
      "attrs": {
        "__profiler_scope__": "<unk>:", 
        "newshape": "(-2, -2, 12, -1)"
      }, 
      "inputs": [[346, 1, 0]]
    }, 
    {
      "op": "SwapAxis", 
      "name": "node_249", 
      "attrs": {
        "__profiler_scope__": "<unk>:", 
        "dim1": "1", 
        "dim2": "2"
      }, 
      "inputs": [[349, 0, 0]]
    }, 
    {
      "op": "batch_dot", 
      "name": "node_250", 
      "attrs": {
        "__profiler_scope__": "<unk>:", 
        "transpose_b": "True"
      }, 
      "inputs": [[348, 0, 0], [350, 0, 0]]
    }, 
    {
      "op": "expand_dims", 
      "name": "node_246", 
      "attrs": {
        "__profiler_scope__": "<unk>:", 
        "axis": "1"
      }, 
      "inputs": [[31, 0, 0]]
    }, 
    {
      "op": "Cast", 
      "name": "node_247", 
      "attrs": {
        "__profiler_scope__": "<unk>:", 
        "dtype": "bool"
      }, 
      "inputs": [[352, 0, 0]]
    }, 
    {
      "op": "Cast", 
      "name": "node_251", 
      "attrs": {
        "__profiler_scope__": "<unk>:", 
        "dtype": "bool"
      }, 
      "inputs": [[353, 0, 0]]
    }, 
    {
      "op": "masked_softmax", 
      "name": "node_252", 
      "attrs": {
        "__profiler_scope__": "<unk>:", 
        "axis": "-1", 
        "temperature": "8.0"
      }, 
      "inputs": [[351, 0, 0], [354, 0, 0]]
    }, 
    {
      "op": "Dropout", 
      "name": "node_253", 
      "attrs": {
        "__profiler_scope__": "<unk>:", 
        "p": "0.1"
      }, 
      "inputs": [[355, 0, 0]]
    }, 
    {
      "op": "_npx_reshape", 
      "name": "node_245", 
      "attrs": {
        "__profiler_scope__": "<unk>:", 
        "newshape": "(-2, -2, 12, -1)"
      }, 
      "inputs": [[346, 2, 0]]
    }, 
    {
      "op": "SwapAxis", 
      "name": "node_254", 
      "attrs": {
        "__profiler_scope__": "<unk>:", 
        "dim1": "1", 
        "dim2": "2"
      }, 
      "inputs": [[357, 0, 0]]
    }, 
    {
      "op": "batch_dot", 
      "name": "node_255", 
      "attrs": {"__profiler_scope__": "<unk>:"}, 
      "inputs": [[356, 0, 0], [358, 0, 0]]
    }, 
    {
      "op": "_npi_transpose", 
      "name": "node_256", 
      "attrs": {"axes": "[0,2,1,3]"}, 
      "inputs": [[359, 0, 0]]
    }, 
    {
      "op": "_npx_reshape", 
      "name": "node_257", 
      "attrs": {
        "__profiler_scope__": "<unk>:", 
        "newshape": "(-2, -2, -1)"
      }, 
      "inputs": [[360, 0, 0]]
    }, 
    {
      "op": "null", 
      "name": "encoder.all_layers.8.attention_proj.weight", 
      "attrs": {
        "__dtype__": "0", 
        "__init__": "[\"truncnorm\", {}]", 
        "__lr_mult__": "1.0", 
        "__profiler_scope__": "<unk>:", 
        "__shape__": "(768, 768)", 
        "__storage_type__": "0", 
        "__wd_mult__": "1.0"
      }, 
      "inputs": []
    }, 
    {
      "op": "null", 
      "name": "encoder.all_layers.8.attention_proj.bias", 
      "attrs": {
        "__dtype__": "0", 
        "__init__": "[\"zero\", {}]", 
        "__lr_mult__": "1.0", 
        "__profiler_scope__": "<unk>:", 
        "__shape__": "(768,)", 
        "__storage_type__": "0", 
        "__wd_mult__": "1.0"
      }, 
      "inputs": []
    }, 
    {
      "op": "FullyConnected", 
      "name": "node_258", 
      "attrs": {
        "__profiler_scope__": "<unk>:", 
        "flatten": "False", 
        "no_bias": "False", 
        "num_hidden": "768"
      }, 
      "inputs": [[361, 0, 0], [362, 0, 0], [363, 0, 0]]
    }, 
    {
      "op": "Dropout", 
      "name": "node_259", 
      "attrs": {
        "__profiler_scope__": "<unk>:", 
        "axes": "()", 
        "cudnn_off": "False", 
        "p": "0.1"
      }, 
      "inputs": [[364, 0, 0]]
    }, 
    {
      "op": "_npi_add", 
      "name": "node_260", 
      "inputs": [[365, 0, 0], [342, 0, 0]]
    }, 
    {
      "op": "null", 
      "name": "encoder.all_layers.8.layer_norm.gamma", 
      "attrs": {
        "__dtype__": "0", 
        "__init__": "ones", 
        "__lr_mult__": "1.0", 
        "__profiler_scope__": "<unk>:", 
        "__shape__": "(768,)", 
        "__storage_type__": "0", 
        "__wd_mult__": "1.0"
      }, 
      "inputs": []
    }, 
    {
      "op": "null", 
      "name": "encoder.all_layers.8.layer_norm.beta", 
      "attrs": {
        "__dtype__": "0", 
        "__init__": "zeros", 
        "__lr_mult__": "1.0", 
        "__profiler_scope__": "<unk>:", 
        "__shape__": "(768,)", 
        "__storage_type__": "0", 
        "__wd_mult__": "1.0"
      }, 
      "inputs": []
    }, 
    {
      "op": "LayerNorm", 
      "name": "node_261", 
      "attrs": {
        "__profiler_scope__": "<unk>:", 
        "axis": "-1", 
        "eps": "1e-05"
      }, 
      "inputs": [[366, 0, 0], [367, 0, 0], [368, 0, 0]]
    }, 
    {
      "op": "null", 
      "name": "encoder.all_layers.8.ffn.ffn_1.weight", 
      "attrs": {
        "__dtype__": "0", 
        "__init__": "[\"truncnorm\", {}]", 
        "__lr_mult__": "1.0", 
        "__profiler_scope__": "<unk>:", 
        "__shape__": "(3072, 768)", 
        "__storage_type__": "0", 
        "__wd_mult__": "1.0"
      }, 
      "inputs": []
    }, 
    {
      "op": "null", 
      "name": "encoder.all_layers.8.ffn.ffn_1.bias", 
      "attrs": {
        "__dtype__": "0", 
        "__init__": "[\"zero\", {}]", 
        "__lr_mult__": "1.0", 
        "__profiler_scope__": "<unk>:", 
        "__shape__": "(3072,)", 
        "__storage_type__": "0", 
        "__wd_mult__": "1.0"
      }, 
      "inputs": []
    }, 
    {
      "op": "FullyConnected", 
      "name": "node_262", 
      "attrs": {
        "__profiler_scope__": "<unk>:", 
        "flatten": "False", 
        "no_bias": "False", 
        "num_hidden": "3072"
      }, 
      "inputs": [[369, 0, 0], [370, 0, 0], [371, 0, 0]]
    }, 
    {
      "op": "LeakyReLU", 
      "name": "node_263", 
      "attrs": {
        "__profiler_scope__": "<unk>:", 
        "act_type": "gelu"
      }, 
      "inputs": [[372, 0, 0]]
    }, 
    {
      "op": "_npi_copy", 
      "name": "node_264", 
      "inputs": [[373, 0, 0]]
    }, 
    {
      "op": "null", 
      "name": "encoder.all_layers.8.ffn.ffn_2.weight", 
      "attrs": {
        "__dtype__": "0", 
        "__init__": "[\"truncnorm\", {}]", 
        "__lr_mult__": "1.0", 
        "__profiler_scope__": "<unk>:", 
        "__shape__": "(768, 3072)", 
        "__storage_type__": "0", 
        "__wd_mult__": "1.0"
      }, 
      "inputs": []
    }, 
    {
      "op": "null", 
      "name": "encoder.all_layers.8.ffn.ffn_2.bias", 
      "attrs": {
        "__dtype__": "0", 
        "__init__": "[\"zero\", {}]", 
        "__lr_mult__": "1.0", 
        "__profiler_scope__": "<unk>:", 
        "__shape__": "(768,)", 
        "__storage_type__": "0", 
        "__wd_mult__": "1.0"
      }, 
      "inputs": []
    }, 
    {
      "op": "FullyConnected", 
      "name": "node_265", 
      "attrs": {
        "__profiler_scope__": "<unk>:", 
        "flatten": "False", 
        "no_bias": "False", 
        "num_hidden": "768"
      }, 
      "inputs": [[374, 0, 0], [375, 0, 0], [376, 0, 0]]
    }, 
    {
      "op": "Dropout", 
      "name": "node_266", 
      "attrs": {
        "__profiler_scope__": "<unk>:", 
        "axes": "()", 
        "cudnn_off": "False", 
        "p": "0.1"
      }, 
      "inputs": [[377, 0, 0]]
    }, 
    {
      "op": "_npi_add", 
      "name": "node_267", 
      "inputs": [[378, 0, 0], [369, 0, 0]]
    }, 
    {
      "op": "null", 
      "name": "encoder.all_layers.8.ffn.layer_norm.gamma", 
      "attrs": {
        "__dtype__": "0", 
        "__init__": "ones", 
        "__lr_mult__": "1.0", 
        "__profiler_scope__": "<unk>:", 
        "__shape__": "(768,)", 
        "__storage_type__": "0", 
        "__wd_mult__": "1.0"
      }, 
      "inputs": []
    }, 
    {
      "op": "null", 
      "name": "encoder.all_layers.8.ffn.layer_norm.beta", 
      "attrs": {
        "__dtype__": "0", 
        "__init__": "zeros", 
        "__lr_mult__": "1.0", 
        "__profiler_scope__": "<unk>:", 
        "__shape__": "(768,)", 
        "__storage_type__": "0", 
        "__wd_mult__": "1.0"
      }, 
      "inputs": []
    }, 
    {
      "op": "LayerNorm", 
      "name": "node_268", 
      "attrs": {
        "__profiler_scope__": "<unk>:", 
        "axis": "-1", 
        "eps": "1e-05"
      }, 
      "inputs": [[379, 0, 0], [380, 0, 0], [381, 0, 0]]
    }, 
    {
      "op": "null", 
      "name": "encoder.all_layers.9.attn_qkv.weight", 
      "attrs": {
        "__dtype__": "0", 
        "__init__": "[\"truncnorm\", {}]", 
        "__lr_mult__": "1.0", 
        "__profiler_scope__": "<unk>:", 
        "__shape__": "(2304, 768)", 
        "__storage_type__": "0", 
        "__wd_mult__": "1.0"
      }, 
      "inputs": []
    }, 
    {
      "op": "null", 
      "name": "encoder.all_layers.9.attn_qkv.bias", 
      "attrs": {
        "__dtype__": "0", 
        "__init__": "[\"zero\", {}]", 
        "__lr_mult__": "1.0", 
        "__profiler_scope__": "<unk>:", 
        "__shape__": "(2304,)", 
        "__storage_type__": "0", 
        "__wd_mult__": "1.0"
      }, 
      "inputs": []
    }, 
    {
      "op": "FullyConnected", 
      "name": "node_269", 
      "attrs": {
        "__profiler_scope__": "<unk>:", 
        "flatten": "False", 
        "no_bias": "False", 
        "num_hidden": "2304"
      }, 
      "inputs": [[382, 0, 0], [383, 0, 0], [384, 0, 0]]
    }, 
    {
      "op": "_split_v2", 
      "name": "node_270", 
      "attrs": {
        "axis": "-1", 
        "indices": "[]", 
        "sections": "3", 
        "squeeze_axis": "0"
      }, 
      "inputs": [[385, 0, 0]]
    }, 
    {
      "op": "_npx_reshape", 
      "name": "node_271", 
      "attrs": {
        "__profiler_scope__": "<unk>:", 
        "newshape": "(-2, -2, 12, -1)"
      }, 
      "inputs": [[386, 0, 0]]
    }, 
    {
      "op": "SwapAxis", 
      "name": "node_276", 
      "attrs": {
        "__profiler_scope__": "<unk>:", 
        "dim1": "1", 
        "dim2": "2"
      }, 
      "inputs": [[387, 0, 0]]
    }, 
    {
      "op": "_npx_reshape", 
      "name": "node_272", 
      "attrs": {
        "__profiler_scope__": "<unk>:", 
        "newshape": "(-2, -2, 12, -1)"
      }, 
      "inputs": [[386, 1, 0]]
    }, 
    {
      "op": "SwapAxis", 
      "name": "node_277", 
      "attrs": {
        "__profiler_scope__": "<unk>:", 
        "dim1": "1", 
        "dim2": "2"
      }, 
      "inputs": [[389, 0, 0]]
    }, 
    {
      "op": "batch_dot", 
      "name": "node_278", 
      "attrs": {
        "__profiler_scope__": "<unk>:", 
        "transpose_b": "True"
      }, 
      "inputs": [[388, 0, 0], [390, 0, 0]]
    }, 
    {
      "op": "expand_dims", 
      "name": "node_274", 
      "attrs": {
        "__profiler_scope__": "<unk>:", 
        "axis": "1"
      }, 
      "inputs": [[31, 0, 0]]
    }, 
    {
      "op": "Cast", 
      "name": "node_275", 
      "attrs": {
        "__profiler_scope__": "<unk>:", 
        "dtype": "bool"
      }, 
      "inputs": [[392, 0, 0]]
    }, 
    {
      "op": "Cast", 
      "name": "node_279", 
      "attrs": {
        "__profiler_scope__": "<unk>:", 
        "dtype": "bool"
      }, 
      "inputs": [[393, 0, 0]]
    }, 
    {
      "op": "masked_softmax", 
      "name": "node_280", 
      "attrs": {
        "__profiler_scope__": "<unk>:", 
        "axis": "-1", 
        "temperature": "8.0"
      }, 
      "inputs": [[391, 0, 0], [394, 0, 0]]
    }, 
    {
      "op": "Dropout", 
      "name": "node_281", 
      "attrs": {
        "__profiler_scope__": "<unk>:", 
        "p": "0.1"
      }, 
      "inputs": [[395, 0, 0]]
    }, 
    {
      "op": "_npx_reshape", 
      "name": "node_273", 
      "attrs": {
        "__profiler_scope__": "<unk>:", 
        "newshape": "(-2, -2, 12, -1)"
      }, 
      "inputs": [[386, 2, 0]]
    }, 
    {
      "op": "SwapAxis", 
      "name": "node_282", 
      "attrs": {
        "__profiler_scope__": "<unk>:", 
        "dim1": "1", 
        "dim2": "2"
      }, 
      "inputs": [[397, 0, 0]]
    }, 
    {
      "op": "batch_dot", 
      "name": "node_283", 
      "attrs": {"__profiler_scope__": "<unk>:"}, 
      "inputs": [[396, 0, 0], [398, 0, 0]]
    }, 
    {
      "op": "_npi_transpose", 
      "name": "node_284", 
      "attrs": {"axes": "[0,2,1,3]"}, 
      "inputs": [[399, 0, 0]]
    }, 
    {
      "op": "_npx_reshape", 
      "name": "node_285", 
      "attrs": {
        "__profiler_scope__": "<unk>:", 
        "newshape": "(-2, -2, -1)"
      }, 
      "inputs": [[400, 0, 0]]
    }, 
    {
      "op": "null", 
      "name": "encoder.all_layers.9.attention_proj.weight", 
      "attrs": {
        "__dtype__": "0", 
        "__init__": "[\"truncnorm\", {}]", 
        "__lr_mult__": "1.0", 
        "__profiler_scope__": "<unk>:", 
        "__shape__": "(768, 768)", 
        "__storage_type__": "0", 
        "__wd_mult__": "1.0"
      }, 
      "inputs": []
    }, 
    {
      "op": "null", 
      "name": "encoder.all_layers.9.attention_proj.bias", 
      "attrs": {
        "__dtype__": "0", 
        "__init__": "[\"zero\", {}]", 
        "__lr_mult__": "1.0", 
        "__profiler_scope__": "<unk>:", 
        "__shape__": "(768,)", 
        "__storage_type__": "0", 
        "__wd_mult__": "1.0"
      }, 
      "inputs": []
    }, 
    {
      "op": "FullyConnected", 
      "name": "node_286", 
      "attrs": {
        "__profiler_scope__": "<unk>:", 
        "flatten": "False", 
        "no_bias": "False", 
        "num_hidden": "768"
      }, 
      "inputs": [[401, 0, 0], [402, 0, 0], [403, 0, 0]]
    }, 
    {
      "op": "Dropout", 
      "name": "node_287", 
      "attrs": {
        "__profiler_scope__": "<unk>:", 
        "axes": "()", 
        "cudnn_off": "False", 
        "p": "0.1"
      }, 
      "inputs": [[404, 0, 0]]
    }, 
    {
      "op": "_npi_add", 
      "name": "node_288", 
      "inputs": [[405, 0, 0], [382, 0, 0]]
    }, 
    {
      "op": "null", 
      "name": "encoder.all_layers.9.layer_norm.gamma", 
      "attrs": {
        "__dtype__": "0", 
        "__init__": "ones", 
        "__lr_mult__": "1.0", 
        "__profiler_scope__": "<unk>:", 
        "__shape__": "(768,)", 
        "__storage_type__": "0", 
        "__wd_mult__": "1.0"
      }, 
      "inputs": []
    }, 
    {
      "op": "null", 
      "name": "encoder.all_layers.9.layer_norm.beta", 
      "attrs": {
        "__dtype__": "0", 
        "__init__": "zeros", 
        "__lr_mult__": "1.0", 
        "__profiler_scope__": "<unk>:", 
        "__shape__": "(768,)", 
        "__storage_type__": "0", 
        "__wd_mult__": "1.0"
      }, 
      "inputs": []
    }, 
    {
      "op": "LayerNorm", 
      "name": "node_289", 
      "attrs": {
        "__profiler_scope__": "<unk>:", 
        "axis": "-1", 
        "eps": "1e-05"
      }, 
      "inputs": [[406, 0, 0], [407, 0, 0], [408, 0, 0]]
    }, 
    {
      "op": "null", 
      "name": "encoder.all_layers.9.ffn.ffn_1.weight", 
      "attrs": {
        "__dtype__": "0", 
        "__init__": "[\"truncnorm\", {}]", 
        "__lr_mult__": "1.0", 
        "__profiler_scope__": "<unk>:", 
        "__shape__": "(3072, 768)", 
        "__storage_type__": "0", 
        "__wd_mult__": "1.0"
      }, 
      "inputs": []
    }, 
    {
      "op": "null", 
      "name": "encoder.all_layers.9.ffn.ffn_1.bias", 
      "attrs": {
        "__dtype__": "0", 
        "__init__": "[\"zero\", {}]", 
        "__lr_mult__": "1.0", 
        "__profiler_scope__": "<unk>:", 
        "__shape__": "(3072,)", 
        "__storage_type__": "0", 
        "__wd_mult__": "1.0"
      }, 
      "inputs": []
    }, 
    {
      "op": "FullyConnected", 
      "name": "node_290", 
      "attrs": {
        "__profiler_scope__": "<unk>:", 
        "flatten": "False", 
        "no_bias": "False", 
        "num_hidden": "3072"
      }, 
      "inputs": [[409, 0, 0], [410, 0, 0], [411, 0, 0]]
    }, 
    {
      "op": "LeakyReLU", 
      "name": "node_291", 
      "attrs": {
        "__profiler_scope__": "<unk>:", 
        "act_type": "gelu"
      }, 
      "inputs": [[412, 0, 0]]
    }, 
    {
      "op": "_npi_copy", 
      "name": "node_292", 
      "inputs": [[413, 0, 0]]
    }, 
    {
      "op": "null", 
      "name": "encoder.all_layers.9.ffn.ffn_2.weight", 
      "attrs": {
        "__dtype__": "0", 
        "__init__": "[\"truncnorm\", {}]", 
        "__lr_mult__": "1.0", 
        "__profiler_scope__": "<unk>:", 
        "__shape__": "(768, 3072)", 
        "__storage_type__": "0", 
        "__wd_mult__": "1.0"
      }, 
      "inputs": []
    }, 
    {
      "op": "null", 
      "name": "encoder.all_layers.9.ffn.ffn_2.bias", 
      "attrs": {
        "__dtype__": "0", 
        "__init__": "[\"zero\", {}]", 
        "__lr_mult__": "1.0", 
        "__profiler_scope__": "<unk>:", 
        "__shape__": "(768,)", 
        "__storage_type__": "0", 
        "__wd_mult__": "1.0"
      }, 
      "inputs": []
    }, 
    {
      "op": "FullyConnected", 
      "name": "node_293", 
      "attrs": {
        "__profiler_scope__": "<unk>:", 
        "flatten": "False", 
        "no_bias": "False", 
        "num_hidden": "768"
      }, 
      "inputs": [[414, 0, 0], [415, 0, 0], [416, 0, 0]]
    }, 
    {
      "op": "Dropout", 
      "name": "node_294", 
      "attrs": {
        "__profiler_scope__": "<unk>:", 
        "axes": "()", 
        "cudnn_off": "False", 
        "p": "0.1"
      }, 
      "inputs": [[417, 0, 0]]
    }, 
    {
      "op": "_npi_add", 
      "name": "node_295", 
      "inputs": [[418, 0, 0], [409, 0, 0]]
    }, 
    {
      "op": "null", 
      "name": "encoder.all_layers.9.ffn.layer_norm.gamma", 
      "attrs": {
        "__dtype__": "0", 
        "__init__": "ones", 
        "__lr_mult__": "1.0", 
        "__profiler_scope__": "<unk>:", 
        "__shape__": "(768,)", 
        "__storage_type__": "0", 
        "__wd_mult__": "1.0"
      }, 
      "inputs": []
    }, 
    {
      "op": "null", 
      "name": "encoder.all_layers.9.ffn.layer_norm.beta", 
      "attrs": {
        "__dtype__": "0", 
        "__init__": "zeros", 
        "__lr_mult__": "1.0", 
        "__profiler_scope__": "<unk>:", 
        "__shape__": "(768,)", 
        "__storage_type__": "0", 
        "__wd_mult__": "1.0"
      }, 
      "inputs": []
    }, 
    {
      "op": "LayerNorm", 
      "name": "node_296", 
      "attrs": {
        "__profiler_scope__": "<unk>:", 
        "axis": "-1", 
        "eps": "1e-05"
      }, 
      "inputs": [[419, 0, 0], [420, 0, 0], [421, 0, 0]]
    }, 
    {
      "op": "null", 
      "name": "encoder.all_layers.10.attn_qkv.weight", 
      "attrs": {
        "__dtype__": "0", 
        "__init__": "[\"truncnorm\", {}]", 
        "__lr_mult__": "1.0", 
        "__profiler_scope__": "<unk>:", 
        "__shape__": "(2304, 768)", 
        "__storage_type__": "0", 
        "__wd_mult__": "1.0"
      }, 
      "inputs": []
    }, 
    {
      "op": "null", 
      "name": "encoder.all_layers.10.attn_qkv.bias", 
      "attrs": {
        "__dtype__": "0", 
        "__init__": "[\"zero\", {}]", 
        "__lr_mult__": "1.0", 
        "__profiler_scope__": "<unk>:", 
        "__shape__": "(2304,)", 
        "__storage_type__": "0", 
        "__wd_mult__": "1.0"
      }, 
      "inputs": []
    }, 
    {
      "op": "FullyConnected", 
      "name": "node_297", 
      "attrs": {
        "__profiler_scope__": "<unk>:", 
        "flatten": "False", 
        "no_bias": "False", 
        "num_hidden": "2304"
      }, 
      "inputs": [[422, 0, 0], [423, 0, 0], [424, 0, 0]]
    }, 
    {
      "op": "_split_v2", 
      "name": "node_298", 
      "attrs": {
        "axis": "-1", 
        "indices": "[]", 
        "sections": "3", 
        "squeeze_axis": "0"
      }, 
      "inputs": [[425, 0, 0]]
    }, 
    {
      "op": "_npx_reshape", 
      "name": "node_299", 
      "attrs": {
        "__profiler_scope__": "<unk>:", 
        "newshape": "(-2, -2, 12, -1)"
      }, 
      "inputs": [[426, 0, 0]]
    }, 
    {
      "op": "SwapAxis", 
      "name": "node_304", 
      "attrs": {
        "__profiler_scope__": "<unk>:", 
        "dim1": "1", 
        "dim2": "2"
      }, 
      "inputs": [[427, 0, 0]]
    }, 
    {
      "op": "_npx_reshape", 
      "name": "node_300", 
      "attrs": {
        "__profiler_scope__": "<unk>:", 
        "newshape": "(-2, -2, 12, -1)"
      }, 
      "inputs": [[426, 1, 0]]
    }, 
    {
      "op": "SwapAxis", 
      "name": "node_305", 
      "attrs": {
        "__profiler_scope__": "<unk>:", 
        "dim1": "1", 
        "dim2": "2"
      }, 
      "inputs": [[429, 0, 0]]
    }, 
    {
      "op": "batch_dot", 
      "name": "node_306", 
      "attrs": {
        "__profiler_scope__": "<unk>:", 
        "transpose_b": "True"
      }, 
      "inputs": [[428, 0, 0], [430, 0, 0]]
    }, 
    {
      "op": "expand_dims", 
      "name": "node_302", 
      "attrs": {
        "__profiler_scope__": "<unk>:", 
        "axis": "1"
      }, 
      "inputs": [[31, 0, 0]]
    }, 
    {
      "op": "Cast", 
      "name": "node_303", 
      "attrs": {
        "__profiler_scope__": "<unk>:", 
        "dtype": "bool"
      }, 
      "inputs": [[432, 0, 0]]
    }, 
    {
      "op": "Cast", 
      "name": "node_307", 
      "attrs": {
        "__profiler_scope__": "<unk>:", 
        "dtype": "bool"
      }, 
      "inputs": [[433, 0, 0]]
    }, 
    {
      "op": "masked_softmax", 
      "name": "node_308", 
      "attrs": {
        "__profiler_scope__": "<unk>:", 
        "axis": "-1", 
        "temperature": "8.0"
      }, 
      "inputs": [[431, 0, 0], [434, 0, 0]]
    }, 
    {
      "op": "Dropout", 
      "name": "node_309", 
      "attrs": {
        "__profiler_scope__": "<unk>:", 
        "p": "0.1"
      }, 
      "inputs": [[435, 0, 0]]
    }, 
    {
      "op": "_npx_reshape", 
      "name": "node_301", 
      "attrs": {
        "__profiler_scope__": "<unk>:", 
        "newshape": "(-2, -2, 12, -1)"
      }, 
      "inputs": [[426, 2, 0]]
    }, 
    {
      "op": "SwapAxis", 
      "name": "node_310", 
      "attrs": {
        "__profiler_scope__": "<unk>:", 
        "dim1": "1", 
        "dim2": "2"
      }, 
      "inputs": [[437, 0, 0]]
    }, 
    {
      "op": "batch_dot", 
      "name": "node_311", 
      "attrs": {"__profiler_scope__": "<unk>:"}, 
      "inputs": [[436, 0, 0], [438, 0, 0]]
    }, 
    {
      "op": "_npi_transpose", 
      "name": "node_312", 
      "attrs": {"axes": "[0,2,1,3]"}, 
      "inputs": [[439, 0, 0]]
    }, 
    {
      "op": "_npx_reshape", 
      "name": "node_313", 
      "attrs": {
        "__profiler_scope__": "<unk>:", 
        "newshape": "(-2, -2, -1)"
      }, 
      "inputs": [[440, 0, 0]]
    }, 
    {
      "op": "null", 
      "name": "encoder.all_layers.10.attention_proj.weight", 
      "attrs": {
        "__dtype__": "0", 
        "__init__": "[\"truncnorm\", {}]", 
        "__lr_mult__": "1.0", 
        "__profiler_scope__": "<unk>:", 
        "__shape__": "(768, 768)", 
        "__storage_type__": "0", 
        "__wd_mult__": "1.0"
      }, 
      "inputs": []
    }, 
    {
      "op": "null", 
      "name": "encoder.all_layers.10.attention_proj.bias", 
      "attrs": {
        "__dtype__": "0", 
        "__init__": "[\"zero\", {}]", 
        "__lr_mult__": "1.0", 
        "__profiler_scope__": "<unk>:", 
        "__shape__": "(768,)", 
        "__storage_type__": "0", 
        "__wd_mult__": "1.0"
      }, 
      "inputs": []
    }, 
    {
      "op": "FullyConnected", 
      "name": "node_314", 
      "attrs": {
        "__profiler_scope__": "<unk>:", 
        "flatten": "False", 
        "no_bias": "False", 
        "num_hidden": "768"
      }, 
      "inputs": [[441, 0, 0], [442, 0, 0], [443, 0, 0]]
    }, 
    {
      "op": "Dropout", 
      "name": "node_315", 
      "attrs": {
        "__profiler_scope__": "<unk>:", 
        "axes": "()", 
        "cudnn_off": "False", 
        "p": "0.1"
      }, 
      "inputs": [[444, 0, 0]]
    }, 
    {
      "op": "_npi_add", 
      "name": "node_316", 
      "inputs": [[445, 0, 0], [422, 0, 0]]
    }, 
    {
      "op": "null", 
      "name": "encoder.all_layers.10.layer_norm.gamma", 
      "attrs": {
        "__dtype__": "0", 
        "__init__": "ones", 
        "__lr_mult__": "1.0", 
        "__profiler_scope__": "<unk>:", 
        "__shape__": "(768,)", 
        "__storage_type__": "0", 
        "__wd_mult__": "1.0"
      }, 
      "inputs": []
    }, 
    {
      "op": "null", 
      "name": "encoder.all_layers.10.layer_norm.beta", 
      "attrs": {
        "__dtype__": "0", 
        "__init__": "zeros", 
        "__lr_mult__": "1.0", 
        "__profiler_scope__": "<unk>:", 
        "__shape__": "(768,)", 
        "__storage_type__": "0", 
        "__wd_mult__": "1.0"
      }, 
      "inputs": []
    }, 
    {
      "op": "LayerNorm", 
      "name": "node_317", 
      "attrs": {
        "__profiler_scope__": "<unk>:", 
        "axis": "-1", 
        "eps": "1e-05"
      }, 
      "inputs": [[446, 0, 0], [447, 0, 0], [448, 0, 0]]
    }, 
    {
      "op": "null", 
      "name": "encoder.all_layers.10.ffn.ffn_1.weight", 
      "attrs": {
        "__dtype__": "0", 
        "__init__": "[\"truncnorm\", {}]", 
        "__lr_mult__": "1.0", 
        "__profiler_scope__": "<unk>:", 
        "__shape__": "(3072, 768)", 
        "__storage_type__": "0", 
        "__wd_mult__": "1.0"
      }, 
      "inputs": []
    }, 
    {
      "op": "null", 
      "name": "encoder.all_layers.10.ffn.ffn_1.bias", 
      "attrs": {
        "__dtype__": "0", 
        "__init__": "[\"zero\", {}]", 
        "__lr_mult__": "1.0", 
        "__profiler_scope__": "<unk>:", 
        "__shape__": "(3072,)", 
        "__storage_type__": "0", 
        "__wd_mult__": "1.0"
      }, 
      "inputs": []
    }, 
    {
      "op": "FullyConnected", 
      "name": "node_318", 
      "attrs": {
        "__profiler_scope__": "<unk>:", 
        "flatten": "False", 
        "no_bias": "False", 
        "num_hidden": "3072"
      }, 
      "inputs": [[449, 0, 0], [450, 0, 0], [451, 0, 0]]
    }, 
    {
      "op": "LeakyReLU", 
      "name": "node_319", 
      "attrs": {
        "__profiler_scope__": "<unk>:", 
        "act_type": "gelu"
      }, 
      "inputs": [[452, 0, 0]]
    }, 
    {
      "op": "_npi_copy", 
      "name": "node_320", 
      "inputs": [[453, 0, 0]]
    }, 
    {
      "op": "null", 
      "name": "encoder.all_layers.10.ffn.ffn_2.weight", 
      "attrs": {
        "__dtype__": "0", 
        "__init__": "[\"truncnorm\", {}]", 
        "__lr_mult__": "1.0", 
        "__profiler_scope__": "<unk>:", 
        "__shape__": "(768, 3072)", 
        "__storage_type__": "0", 
        "__wd_mult__": "1.0"
      }, 
      "inputs": []
    }, 
    {
      "op": "null", 
      "name": "encoder.all_layers.10.ffn.ffn_2.bias", 
      "attrs": {
        "__dtype__": "0", 
        "__init__": "[\"zero\", {}]", 
        "__lr_mult__": "1.0", 
        "__profiler_scope__": "<unk>:", 
        "__shape__": "(768,)", 
        "__storage_type__": "0", 
        "__wd_mult__": "1.0"
      }, 
      "inputs": []
    }, 
    {
      "op": "FullyConnected", 
      "name": "node_321", 
      "attrs": {
        "__profiler_scope__": "<unk>:", 
        "flatten": "False", 
        "no_bias": "False", 
        "num_hidden": "768"
      }, 
      "inputs": [[454, 0, 0], [455, 0, 0], [456, 0, 0]]
    }, 
    {
      "op": "Dropout", 
      "name": "node_322", 
      "attrs": {
        "__profiler_scope__": "<unk>:", 
        "axes": "()", 
        "cudnn_off": "False", 
        "p": "0.1"
      }, 
      "inputs": [[457, 0, 0]]
    }, 
    {
      "op": "_npi_add", 
      "name": "node_323", 
      "inputs": [[458, 0, 0], [449, 0, 0]]
    }, 
    {
      "op": "null", 
      "name": "encoder.all_layers.10.ffn.layer_norm.gamma", 
      "attrs": {
        "__dtype__": "0", 
        "__init__": "ones", 
        "__lr_mult__": "1.0", 
        "__profiler_scope__": "<unk>:", 
        "__shape__": "(768,)", 
        "__storage_type__": "0", 
        "__wd_mult__": "1.0"
      }, 
      "inputs": []
    }, 
    {
      "op": "null", 
      "name": "encoder.all_layers.10.ffn.layer_norm.beta", 
      "attrs": {
        "__dtype__": "0", 
        "__init__": "zeros", 
        "__lr_mult__": "1.0", 
        "__profiler_scope__": "<unk>:", 
        "__shape__": "(768,)", 
        "__storage_type__": "0", 
        "__wd_mult__": "1.0"
      }, 
      "inputs": []
    }, 
    {
      "op": "LayerNorm", 
      "name": "node_324", 
      "attrs": {
        "__profiler_scope__": "<unk>:", 
        "axis": "-1", 
        "eps": "1e-05"
      }, 
      "inputs": [[459, 0, 0], [460, 0, 0], [461, 0, 0]]
    }, 
    {
      "op": "null", 
      "name": "encoder.all_layers.11.attn_qkv.weight", 
      "attrs": {
        "__dtype__": "0", 
        "__init__": "[\"truncnorm\", {}]", 
        "__lr_mult__": "1.0", 
        "__profiler_scope__": "<unk>:", 
        "__shape__": "(2304, 768)", 
        "__storage_type__": "0", 
        "__wd_mult__": "1.0"
      }, 
      "inputs": []
    }, 
    {
      "op": "null", 
      "name": "encoder.all_layers.11.attn_qkv.bias", 
      "attrs": {
        "__dtype__": "0", 
        "__init__": "[\"zero\", {}]", 
        "__lr_mult__": "1.0", 
        "__profiler_scope__": "<unk>:", 
        "__shape__": "(2304,)", 
        "__storage_type__": "0", 
        "__wd_mult__": "1.0"
      }, 
      "inputs": []
    }, 
    {
      "op": "FullyConnected", 
      "name": "node_325", 
      "attrs": {
        "__profiler_scope__": "<unk>:", 
        "flatten": "False", 
        "no_bias": "False", 
        "num_hidden": "2304"
      }, 
      "inputs": [[462, 0, 0], [463, 0, 0], [464, 0, 0]]
    }, 
    {
      "op": "_split_v2", 
      "name": "node_326", 
      "attrs": {
        "axis": "-1", 
        "indices": "[]", 
        "sections": "3", 
        "squeeze_axis": "0"
      }, 
      "inputs": [[465, 0, 0]]
    }, 
    {
      "op": "_npx_reshape", 
      "name": "node_327", 
      "attrs": {
        "__profiler_scope__": "<unk>:", 
        "newshape": "(-2, -2, 12, -1)"
      }, 
      "inputs": [[466, 0, 0]]
    }, 
    {
      "op": "SwapAxis", 
      "name": "node_332", 
      "attrs": {
        "__profiler_scope__": "<unk>:", 
        "dim1": "1", 
        "dim2": "2"
      }, 
      "inputs": [[467, 0, 0]]
    }, 
    {
      "op": "_npx_reshape", 
      "name": "node_328", 
      "attrs": {
        "__profiler_scope__": "<unk>:", 
        "newshape": "(-2, -2, 12, -1)"
      }, 
      "inputs": [[466, 1, 0]]
    }, 
    {
      "op": "SwapAxis", 
      "name": "node_333", 
      "attrs": {
        "__profiler_scope__": "<unk>:", 
        "dim1": "1", 
        "dim2": "2"
      }, 
      "inputs": [[469, 0, 0]]
    }, 
    {
      "op": "batch_dot", 
      "name": "node_334", 
      "attrs": {
        "__profiler_scope__": "<unk>:", 
        "transpose_b": "True"
      }, 
      "inputs": [[468, 0, 0], [470, 0, 0]]
    }, 
    {
      "op": "expand_dims", 
      "name": "node_330", 
      "attrs": {
        "__profiler_scope__": "<unk>:", 
        "axis": "1"
      }, 
      "inputs": [[31, 0, 0]]
    }, 
    {
      "op": "Cast", 
      "name": "node_331", 
      "attrs": {
        "__profiler_scope__": "<unk>:", 
        "dtype": "bool"
      }, 
      "inputs": [[472, 0, 0]]
    }, 
    {
      "op": "Cast", 
      "name": "node_335", 
      "attrs": {
        "__profiler_scope__": "<unk>:", 
        "dtype": "bool"
      }, 
      "inputs": [[473, 0, 0]]
    }, 
    {
      "op": "masked_softmax", 
      "name": "node_336", 
      "attrs": {
        "__profiler_scope__": "<unk>:", 
        "axis": "-1", 
        "temperature": "8.0"
      }, 
      "inputs": [[471, 0, 0], [474, 0, 0]]
    }, 
    {
      "op": "Dropout", 
      "name": "node_337", 
      "attrs": {
        "__profiler_scope__": "<unk>:", 
        "p": "0.1"
      }, 
      "inputs": [[475, 0, 0]]
    }, 
    {
      "op": "_npx_reshape", 
      "name": "node_329", 
      "attrs": {
        "__profiler_scope__": "<unk>:", 
        "newshape": "(-2, -2, 12, -1)"
      }, 
      "inputs": [[466, 2, 0]]
    }, 
    {
      "op": "SwapAxis", 
      "name": "node_338", 
      "attrs": {
        "__profiler_scope__": "<unk>:", 
        "dim1": "1", 
        "dim2": "2"
      }, 
      "inputs": [[477, 0, 0]]
    }, 
    {
      "op": "batch_dot", 
      "name": "node_339", 
      "attrs": {"__profiler_scope__": "<unk>:"}, 
      "inputs": [[476, 0, 0], [478, 0, 0]]
    }, 
    {
      "op": "_npi_transpose", 
      "name": "node_340", 
      "attrs": {"axes": "[0,2,1,3]"}, 
      "inputs": [[479, 0, 0]]
    }, 
    {
      "op": "_npx_reshape", 
      "name": "node_341", 
      "attrs": {
        "__profiler_scope__": "<unk>:", 
        "newshape": "(-2, -2, -1)"
      }, 
      "inputs": [[480, 0, 0]]
    }, 
    {
      "op": "null", 
      "name": "encoder.all_layers.11.attention_proj.weight", 
      "attrs": {
        "__dtype__": "0", 
        "__init__": "[\"truncnorm\", {}]", 
        "__lr_mult__": "1.0", 
        "__profiler_scope__": "<unk>:", 
        "__shape__": "(768, 768)", 
        "__storage_type__": "0", 
        "__wd_mult__": "1.0"
      }, 
      "inputs": []
    }, 
    {
      "op": "null", 
      "name": "encoder.all_layers.11.attention_proj.bias", 
      "attrs": {
        "__dtype__": "0", 
        "__init__": "[\"zero\", {}]", 
        "__lr_mult__": "1.0", 
        "__profiler_scope__": "<unk>:", 
        "__shape__": "(768,)", 
        "__storage_type__": "0", 
        "__wd_mult__": "1.0"
      }, 
      "inputs": []
    }, 
    {
      "op": "FullyConnected", 
      "name": "node_342", 
      "attrs": {
        "__profiler_scope__": "<unk>:", 
        "flatten": "False", 
        "no_bias": "False", 
        "num_hidden": "768"
      }, 
      "inputs": [[481, 0, 0], [482, 0, 0], [483, 0, 0]]
    }, 
    {
      "op": "Dropout", 
      "name": "node_343", 
      "attrs": {
        "__profiler_scope__": "<unk>:", 
        "axes": "()", 
        "cudnn_off": "False", 
        "p": "0.1"
      }, 
      "inputs": [[484, 0, 0]]
    }, 
    {
      "op": "_npi_add", 
      "name": "node_344", 
      "inputs": [[485, 0, 0], [462, 0, 0]]
    }, 
    {
      "op": "null", 
      "name": "encoder.all_layers.11.layer_norm.gamma", 
      "attrs": {
        "__dtype__": "0", 
        "__init__": "ones", 
        "__lr_mult__": "1.0", 
        "__profiler_scope__": "<unk>:", 
        "__shape__": "(768,)", 
        "__storage_type__": "0", 
        "__wd_mult__": "1.0"
      }, 
      "inputs": []
    }, 
    {
      "op": "null", 
      "name": "encoder.all_layers.11.layer_norm.beta", 
      "attrs": {
        "__dtype__": "0", 
        "__init__": "zeros", 
        "__lr_mult__": "1.0", 
        "__profiler_scope__": "<unk>:", 
        "__shape__": "(768,)", 
        "__storage_type__": "0", 
        "__wd_mult__": "1.0"
      }, 
      "inputs": []
    }, 
    {
      "op": "LayerNorm", 
      "name": "node_345", 
      "attrs": {
        "__profiler_scope__": "<unk>:", 
        "axis": "-1", 
        "eps": "1e-05"
      }, 
      "inputs": [[486, 0, 0], [487, 0, 0], [488, 0, 0]]
    }, 
    {
      "op": "null", 
      "name": "encoder.all_layers.11.ffn.ffn_1.weight", 
      "attrs": {
        "__dtype__": "0", 
        "__init__": "[\"truncnorm\", {}]", 
        "__lr_mult__": "1.0", 
        "__profiler_scope__": "<unk>:", 
        "__shape__": "(3072, 768)", 
        "__storage_type__": "0", 
        "__wd_mult__": "1.0"
      }, 
      "inputs": []
    }, 
    {
      "op": "null", 
      "name": "encoder.all_layers.11.ffn.ffn_1.bias", 
      "attrs": {
        "__dtype__": "0", 
        "__init__": "[\"zero\", {}]", 
        "__lr_mult__": "1.0", 
        "__profiler_scope__": "<unk>:", 
        "__shape__": "(3072,)", 
        "__storage_type__": "0", 
        "__wd_mult__": "1.0"
      }, 
      "inputs": []
    }, 
    {
      "op": "FullyConnected", 
      "name": "node_346", 
      "attrs": {
        "__profiler_scope__": "<unk>:", 
        "flatten": "False", 
        "no_bias": "False", 
        "num_hidden": "3072"
      }, 
      "inputs": [[489, 0, 0], [490, 0, 0], [491, 0, 0]]
    }, 
    {
      "op": "LeakyReLU", 
      "name": "node_347", 
      "attrs": {
        "__profiler_scope__": "<unk>:", 
        "act_type": "gelu"
      }, 
      "inputs": [[492, 0, 0]]
    }, 
    {
      "op": "_npi_copy", 
      "name": "node_348", 
      "inputs": [[493, 0, 0]]
    }, 
    {
      "op": "null", 
      "name": "encoder.all_layers.11.ffn.ffn_2.weight", 
      "attrs": {
        "__dtype__": "0", 
        "__init__": "[\"truncnorm\", {}]", 
        "__lr_mult__": "1.0", 
        "__profiler_scope__": "<unk>:", 
        "__shape__": "(768, 3072)", 
        "__storage_type__": "0", 
        "__wd_mult__": "1.0"
      }, 
      "inputs": []
    }, 
    {
      "op": "null", 
      "name": "encoder.all_layers.11.ffn.ffn_2.bias", 
      "attrs": {
        "__dtype__": "0", 
        "__init__": "[\"zero\", {}]", 
        "__lr_mult__": "1.0", 
        "__profiler_scope__": "<unk>:", 
        "__shape__": "(768,)", 
        "__storage_type__": "0", 
        "__wd_mult__": "1.0"
      }, 
      "inputs": []
    }, 
    {
      "op": "FullyConnected", 
      "name": "node_349", 
      "attrs": {
        "__profiler_scope__": "<unk>:", 
        "flatten": "False", 
        "no_bias": "False", 
        "num_hidden": "768"
      }, 
      "inputs": [[494, 0, 0], [495, 0, 0], [496, 0, 0]]
    }, 
    {
      "op": "Dropout", 
      "name": "node_350", 
      "attrs": {
        "__profiler_scope__": "<unk>:", 
        "axes": "()", 
        "cudnn_off": "False", 
        "p": "0.1"
      }, 
      "inputs": [[497, 0, 0]]
    }, 
    {
      "op": "_npi_add", 
      "name": "node_351", 
      "inputs": [[498, 0, 0], [489, 0, 0]]
    }, 
    {
      "op": "null", 
      "name": "encoder.all_layers.11.ffn.layer_norm.gamma", 
      "attrs": {
        "__dtype__": "0", 
        "__init__": "ones", 
        "__lr_mult__": "1.0", 
        "__profiler_scope__": "<unk>:", 
        "__shape__": "(768,)", 
        "__storage_type__": "0", 
        "__wd_mult__": "1.0"
      }, 
      "inputs": []
    }, 
    {
      "op": "null", 
      "name": "encoder.all_layers.11.ffn.layer_norm.beta", 
      "attrs": {
        "__dtype__": "0", 
        "__init__": "zeros", 
        "__lr_mult__": "1.0", 
        "__profiler_scope__": "<unk>:", 
        "__shape__": "(768,)", 
        "__storage_type__": "0", 
        "__wd_mult__": "1.0"
      }, 
      "inputs": []
    }, 
    {
      "op": "LayerNorm", 
      "name": "node_352", 
      "attrs": {
        "__profiler_scope__": "<unk>:", 
        "axis": "-1", 
        "eps": "1e-05"
      }, 
      "inputs": [[499, 0, 0], [500, 0, 0], [501, 0, 0]]
    }, 
    {
      "op": "slice", 
      "name": "node_353", 
      "attrs": {
        "__profiler_scope__": "<unk>:", 
        "begin": "[None, 0, None]", 
        "end": "[None, 1, None]", 
        "step": "[None, 1, None]"
      }, 
      "inputs": [[502, 0, 0]]
    }, 
    {
      "op": "_npx_reshape", 
      "name": "node_354", 
      "attrs": {
        "__profiler_scope__": "<unk>:", 
        "newshape": "(-2, -3, -2, -4)"
      }, 
      "inputs": [[503, 0, 0]]
    }
  ], 
  "arg_nodes": [
    0, 
    1, 
    3, 
    8, 
    9, 
    12, 
    13, 
    23, 
    42, 
    43, 
    47, 
    48, 
    50, 
    51, 
    55, 
    56, 
    60, 
    61, 
    63, 
    64, 
    82, 
    83, 
    87, 
    88, 
    90, 
    91, 
    95, 
    96, 
    100, 
    101, 
    103, 
    104, 
    122, 
    123, 
    127, 
    128, 
    130, 
    131, 
    135, 
    136, 
    140, 
    141, 
    143, 
    144, 
    162, 
    163, 
    167, 
    168, 
    170, 
    171, 
    175, 
    176, 
    180, 
    181, 
    183, 
    184, 
    202, 
    203, 
    207, 
    208, 
    210, 
    211, 
    215, 
    216, 
    220, 
    221, 
    223, 
    224, 
    242, 
    243, 
    247, 
    248, 
    250, 
    251, 
    255, 
    256, 
    260, 
    261, 
    263, 
    264, 
    282, 
    283, 
    287, 
    288, 
    290, 
    291, 
    295, 
    296, 
    300, 
    301, 
    303, 
    304, 
    322, 
    323, 
    327, 
    328, 
    330, 
    331, 
    335, 
    336, 
    340, 
    341, 
    343, 
    344, 
    362, 
    363, 
    367, 
    368, 
    370, 
    371, 
    375, 
    376, 
    380, 
    381, 
    383, 
    384, 
    402, 
    403, 
    407, 
    408, 
    410, 
    411, 
    415, 
    416, 
    420, 
    421, 
    423, 
    424, 
    442, 
    443, 
    447, 
    448, 
    450, 
    451, 
    455, 
    456, 
    460, 
    461, 
    463, 
    464, 
    482, 
    483, 
    487, 
    488, 
    490, 
    491, 
    495, 
    496, 
    500, 
    501
  ], 
  "node_row_ptr": [
    0, 
    1, 
    2, 
    3, 
    4, 
    5, 
    6, 
    7, 
    8, 
    9, 
    10, 
    13, 
    15, 
    16, 
    17, 
    18, 
    21, 
    22, 
    23, 
    24, 
    25, 
    26, 
    27, 
    28, 
    29, 
    30, 
    31, 
    32, 
    33, 
    34, 
    35, 
    36, 
    37, 
    38, 
    39, 
    40, 
    41, 
    43, 
    44, 
    45, 
    46, 
    47, 
    48, 
    49, 
    50, 
    51, 
    53, 
    54, 
    55, 
    56, 
    59, 
    60, 
    61, 
    62, 
    63, 
    64, 
    65, 
    66, 
    67, 
    69, 
    70, 
    71, 
    72, 
    75, 
    76, 
    77, 
    78, 
    81, 
    82, 
    83, 
    84, 
    85, 
    86, 
    87, 
    88, 
    89, 
    90, 
    92, 
    93, 
    94, 
    95, 
    96, 
    97, 
    98, 
    99, 
    100, 
    102, 
    103, 
    104, 
    105, 
    108, 
    109, 
    110, 
    111, 
    112, 
    113, 
    114, 
    115, 
    116, 
    118, 
    119, 
    120, 
    121, 
    124, 
    125, 
    126, 
    127, 
    130, 
    131, 
    132, 
    133, 
    134, 
    135, 
    136, 
    137, 
    138, 
    139, 
    141, 
    142, 
    143, 
    144, 
    145, 
    146, 
    147, 
    148, 
    149, 
    151, 
    152, 
    153, 
    154, 
    157, 
    158, 
    159, 
    160, 
    161, 
    162, 
    163, 
    164, 
    165, 
    167, 
    168, 
    169, 
    170, 
    173, 
    174, 
    175, 
    176, 
    179, 
    180, 
    181, 
    182, 
    183, 
    184, 
    185, 
    186, 
    187, 
    188, 
    190, 
    191, 
    192, 
    193, 
    194, 
    195, 
    196, 
    197, 
    198, 
    200, 
    201, 
    202, 
    203, 
    206, 
    207, 
    208, 
    209, 
    210, 
    211, 
    212, 
    213, 
    214, 
    216, 
    217, 
    218, 
    219, 
    222, 
    223, 
    224, 
    225, 
    228, 
    229, 
    230, 
    231, 
    232, 
    233, 
    234, 
    235, 
    236, 
    237, 
    239, 
    240, 
    241, 
    242, 
    243, 
    244, 
    245, 
    246, 
    247, 
    249, 
    250, 
    251, 
    252, 
    255, 
    256, 
    257, 
    258, 
    259, 
    260, 
    261, 
    262, 
    263, 
    265, 
    266, 
    267, 
    268, 
    271, 
    272, 
    273, 
    274, 
    277, 
    278, 
    279, 
    280, 
    281, 
    282, 
    283, 
    284, 
    285, 
    286, 
    288, 
    289, 
    290, 
    291, 
    292, 
    293, 
    294, 
    295, 
    296, 
    298, 
    299, 
    300, 
    301, 
    304, 
    305, 
    306, 
    307, 
    308, 
    309, 
    310, 
    311, 
    312, 
    314, 
    315, 
    316, 
    317, 
    320, 
    321, 
    322, 
    323, 
    326, 
    327, 
    328, 
    329, 
    330, 
    331, 
    332, 
    333, 
    334, 
    335, 
    337, 
    338, 
    339, 
    340, 
    341, 
    342, 
    343, 
    344, 
    345, 
    347, 
    348, 
    349, 
    350, 
    353, 
    354, 
    355, 
    356, 
    357, 
    358, 
    359, 
    360, 
    361, 
    363, 
    364, 
    365, 
    366, 
    369, 
    370, 
    371, 
    372, 
    375, 
    376, 
    377, 
    378, 
    379, 
    380, 
    381, 
    382, 
    383, 
    384, 
    386, 
    387, 
    388, 
    389, 
    390, 
    391, 
    392, 
    393, 
    394, 
    396, 
    397, 
    398, 
    399, 
    402, 
    403, 
    404, 
    405, 
    406, 
    407, 
    408, 
    409, 
    410, 
    412, 
    413, 
    414, 
    415, 
    418, 
    419, 
    420, 
    421, 
    424, 
    425, 
    426, 
    427, 
    428, 
    429, 
    430, 
    431, 
    432, 
    433, 
    435, 
    436, 
    437, 
    438, 
    439, 
    440, 
    441, 
    442, 
    443, 
    445, 
    446, 
    447, 
    448, 
    451, 
    452, 
    453, 
    454, 
    455, 
    456, 
    457, 
    458, 
    459, 
    461, 
    462, 
    463, 
    464, 
    467, 
    468, 
    469, 
    470, 
    473, 
    474, 
    475, 
    476, 
    477, 
    478, 
    479, 
    480, 
    481, 
    482, 
    484, 
    485, 
    486, 
    487, 
    488, 
    489, 
    490, 
    491, 
    492, 
    494, 
    495, 
    496, 
    497, 
    500, 
    501, 
    502, 
    503, 
    504, 
    505, 
    506, 
    507, 
    508, 
    510, 
    511, 
    512, 
    513, 
    516, 
    517, 
    518, 
    519, 
    522, 
    523, 
    524, 
    525, 
    526, 
    527, 
    528, 
    529, 
    530, 
    531, 
    533, 
    534, 
    535, 
    536, 
    537, 
    538, 
    539, 
    540, 
    541, 
    543, 
    544, 
    545, 
    546, 
    549, 
    550, 
    551, 
    552, 
    553, 
    554, 
    555, 
    556, 
    557, 
    559, 
    560, 
    561, 
    562, 
    565, 
    566, 
    567, 
    568, 
    571, 
    572, 
    573, 
    574, 
    575, 
    576, 
    577, 
    578, 
    579, 
    580, 
    582, 
    583, 
    584, 
    585, 
    586, 
    587, 
    588, 
    589, 
    590, 
    592, 
    593, 
    594, 
    595, 
    598, 
    599, 
    600, 
    601, 
    602, 
    603, 
    604, 
    605, 
    606, 
    608, 
    609, 
    610, 
    611, 
    614, 
    615, 
    616
  ], 
  "heads": [
    [11, 0, 0], 
    [62, 0, 0], 
    [102, 0, 0], 
    [142, 0, 0], 
    [182, 0, 0], 
    [222, 0, 0], 
    [262, 0, 0], 
    [302, 0, 0], 
    [342, 0, 0], 
    [382, 0, 0], 
    [422, 0, 0], 
    [462, 0, 0], 
    [502, 0, 0], 
    [504, 0, 0]
  ], 
  "attrs": {
    "is_np_shape": ["int", 1], 
    "mxnet_version": ["int", 20000]
  }
}