{
  "nodes": [
    {
      "op": "null", 
      "name": "data0", 
      "inputs": []
    }, 
    {
      "op": "null", 
      "name": "net_00_zscorenormalization0_data_mean", 
      "attrs": {
        "__dtype__": "0", 
        "__init__": "[\"constant\", {\"value\": [… ", 
        "__lr_mult__": "1.0", 
        "__shape__": "(91L,)", 
        "__storage_type__": "0", 
        "__wd_mult__": "1.0"
      }, 
      "inputs": []
    }, 
    {
      "op": "broadcast_sub", 
      "name": "net_00_zscorenormalization0_broadcast_sub0", 
      "inputs": [[0, 0, 0], [1, 0, 0]]
    }, 
    {
      "op": "null", 
      "name": "net_00_zscorenormalization0_data_std", 
      "attrs": {
        "__dtype__": "0", 
        "__init__": "[\"constant\", {\"value\": [… ", 
        "__lr_mult__": "1.0", 
        "__shape__": "(91L,)", 
        "__storage_type__": "0", 
        "__wd_mult__": "1.0"
      }, 
      "inputs": []
    }, 
    {
      "op": "broadcast_div", 
      "name": "net_00_zscorenormalization0_broadcast_div0", 
      "inputs": [[2, 0, 0], [3, 0, 0]]
    }, 
    {
      "op": "null", 
      "name": "net_00_embedding0_weight", 
      "attrs": {
        "__dtype__": "0", 
        "__lr_mult__": "1.0", 
        "__shape__": "(30000, 10)", 
        "__storage_type__": "0", 
        "__wd_mult__": "1.0"
      }, 
      "inputs": []
    }, 
    {
      "op": "Embedding", 
      "name": "net_00_embedding0_fwd", 
      "attrs": {
        "dtype": "float32", 
        "input_dim": "30000", 
        "output_dim": "10", 
        "sparse_grad": "False"
      }, 
      "inputs": [[4, 0, 0], [5, 0, 0]]
    }, 
    {
      "op": "SwapAxis", 
      "name": "net_00_gru0_swapaxes0", 
      "attrs": {
        "dim1": "0", 
        "dim2": "1"
      }, 
      "inputs": [[6, 0, 0]]
    }, 
    {
      "op": "null", 
      "name": "net_00_gru0_l0_i2h_weight", 
      "attrs": {
        "__dtype__": "0", 
        "__lr_mult__": "1.0", 
        "__shape__": "(30, 0)", 
        "__storage_type__": "0", 
        "__wd_mult__": "1.0"
      }, 
      "inputs": []
    }, 
    {
      "op": "Reshape", 
      "name": "net_00_gru0_reshape0", 
      "attrs": {"shape": "-1"}, 
      "inputs": [[8, 0, 0]]
    }, 
    {
      "op": "null", 
      "name": "net_00_gru0_l0_h2h_weight", 
      "attrs": {
        "__dtype__": "0", 
        "__lr_mult__": "1.0", 
        "__shape__": "(30, 10)", 
        "__storage_type__": "0", 
        "__wd_mult__": "1.0"
      }, 
      "inputs": []
    }, 
    {
      "op": "Reshape", 
      "name": "net_00_gru0_reshape1", 
      "attrs": {"shape": "-1"}, 
      "inputs": [[10, 0, 0]]
    }, 
    {
      "op": "null", 
      "name": "net_00_gru0_r0_i2h_weight", 
      "attrs": {
        "__dtype__": "0", 
        "__lr_mult__": "1.0", 
        "__shape__": "(30, 0)", 
        "__storage_type__": "0", 
        "__wd_mult__": "1.0"
      }, 
      "inputs": []
    }, 
    {
      "op": "Reshape", 
      "name": "net_00_gru0_reshape2", 
      "attrs": {"shape": "-1"}, 
      "inputs": [[12, 0, 0]]
    }, 
    {
      "op": "null", 
      "name": "net_00_gru0_r0_h2h_weight", 
      "attrs": {
        "__dtype__": "0", 
        "__lr_mult__": "1.0", 
        "__shape__": "(30, 10)", 
        "__storage_type__": "0", 
        "__wd_mult__": "1.0"
      }, 
      "inputs": []
    }, 
    {
      "op": "Reshape", 
      "name": "net_00_gru0_reshape3", 
      "attrs": {"shape": "-1"}, 
      "inputs": [[14, 0, 0]]
    }, 
    {
      "op": "null", 
      "name": "net_00_gru0_l0_i2h_bias", 
      "attrs": {
        "__dtype__": "0", 
        "__init__": "zeros", 
        "__lr_mult__": "1.0", 
        "__shape__": "(30,)", 
        "__storage_type__": "0", 
        "__wd_mult__": "1.0"
      }, 
      "inputs": []
    }, 
    {
      "op": "Reshape", 
      "name": "net_00_gru0_reshape4", 
      "attrs": {"shape": "-1"}, 
      "inputs": [[16, 0, 0]]
    }, 
    {
      "op": "null", 
      "name": "net_00_gru0_l0_h2h_bias", 
      "attrs": {
        "__dtype__": "0", 
        "__init__": "zeros", 
        "__lr_mult__": "1.0", 
        "__shape__": "(30,)", 
        "__storage_type__": "0", 
        "__wd_mult__": "1.0"
      }, 
      "inputs": []
    }, 
    {
      "op": "Reshape", 
      "name": "net_00_gru0_reshape5", 
      "attrs": {"shape": "-1"}, 
      "inputs": [[18, 0, 0]]
    }, 
    {
      "op": "null", 
      "name": "net_00_gru0_r0_i2h_bias", 
      "attrs": {
        "__dtype__": "0", 
        "__init__": "zeros", 
        "__lr_mult__": "1.0", 
        "__shape__": "(30,)", 
        "__storage_type__": "0", 
        "__wd_mult__": "1.0"
      }, 
      "inputs": []
    }, 
    {
      "op": "Reshape", 
      "name": "net_00_gru0_reshape6", 
      "attrs": {"shape": "-1"}, 
      "inputs": [[20, 0, 0]]
    }, 
    {
      "op": "null", 
      "name": "net_00_gru0_r0_h2h_bias", 
      "attrs": {
        "__dtype__": "0", 
        "__init__": "zeros", 
        "__lr_mult__": "1.0", 
        "__shape__": "(30,)", 
        "__storage_type__": "0", 
        "__wd_mult__": "1.0"
      }, 
      "inputs": []
    }, 
    {
      "op": "Reshape", 
      "name": "net_00_gru0_reshape7", 
      "attrs": {"shape": "-1"}, 
      "inputs": [[22, 0, 0]]
    }, 
    {
      "op": "_rnn_param_concat", 
      "name": "net_00_gru0__rnn_param_concat0", 
      "attrs": {
        "dim": "0", 
        "num_args": "8"
      }, 
      "inputs": [[9, 0, 0], [11, 0, 0], [13, 0, 0], [15, 0, 0], [17, 0, 0], [19, 0, 0], [21, 0, 0], [23, 0, 0]]
    }, 
    {
      "op": "null", 
      "name": "data1", 
      "inputs": []
    }, 
    {
      "op": "RNN", 
      "name": "net_00_gru0_rnn0", 
      "attrs": {
        "bidirectional": "True", 
        "lstm_state_clip_max": "None", 
        "lstm_state_clip_min": "None", 
        "lstm_state_clip_nan": "False", 
        "mode": "gru", 
        "num_layers": "1", 
        "p": "0", 
        "projection_size": "None", 
        "state_outputs": "True", 
        "state_size": "10"
      }, 
      "inputs": [[7, 0, 0], [24, 0, 0], [25, 0, 0]]
    }, 
    {
      "op": "SwapAxis", 
      "name": "net_00_gru0_swapaxes1", 
      "attrs": {
        "dim1": "0", 
        "dim2": "1"
      }, 
      "inputs": [[26, 0, 0]]
    }
  ], 
  "arg_nodes": [
    0, 
    1, 
    3, 
    5, 
    8, 
    10, 
    12, 
    14, 
    16, 
    18, 
    20, 
    22, 
    25
  ], 
  "node_row_ptr": [
    0, 
    1, 
    2, 
    3, 
    4, 
    5, 
    6, 
    7, 
    8, 
    9, 
    10, 
    11, 
    12, 
    13, 
    14, 
    15, 
    16, 
    17, 
    18, 
    19, 
    20, 
    21, 
    22, 
    23, 
    24, 
    25, 
    26, 
    28, 
    29
  ], 
  "heads": [[27, 0, 0], [26, 1, 0]], 
  "attrs": {"mxnet_version": ["int", 10400]}
}