{
  "nodes": [
    {
      "op": "null", 
      "name": "data0", 
      "inputs": []
    }, 
    {
      "op": "null", 
      "name": "net_10_zscorenormalization0_data_mean", 
      "attrs": {
        "__dtype__": "0", 
        "__init__": "[\"constant\", {\"value\": [[[… ", 
        "__lr_mult__": "1.0", 
        "__shape__": "(3L, 32L, 32L)", 
        "__storage_type__": "0", 
        "__wd_mult__": "1.0"
      }, 
      "inputs": []
    }, 
    {
      "op": "broadcast_sub", 
      "name": "net_10_zscorenormalization0_broadcast_sub0", 
      "inputs": [[0, 0, 0], [1, 0, 0]]
    }, 
    {
      "op": "null", 
      "name": "net_10_zscorenormalization0_data_std", 
      "attrs": {
        "__dtype__": "0", 
        "__init__": "[\"constant\", {\"value\": [[[… ", 
        "__lr_mult__": "1.0", 
        "__shape__": "(3L, 32L, 32L)", 
        "__storage_type__": "0", 
        "__wd_mult__": "1.0"
      }, 
      "inputs": []
    }, 
    {
      "op": "broadcast_div", 
      "name": "net_10_zscorenormalization0_broadcast_div0", 
      "inputs": [[2, 0, 0], [3, 0, 0]]
    }, 
    {
      "op": "Flatten", 
      "name": "net_10_flatten0_flatten0", 
      "inputs": [[4, 0, 0]]
    }, 
    {
      "op": "softmax", 
      "name": "net_10_softmax0_softmax0", 
      "inputs": [[5, 0, 0]]
    }, 
    {
      "op": "null", 
      "name": "net_10_embedding0_weight", 
      "attrs": {
        "__dtype__": "0", 
        "__lr_mult__": "1.0", 
        "__shape__": "(2, 10)", 
        "__storage_type__": "0", 
        "__wd_mult__": "1.0"
      }, 
      "inputs": []
    }, 
    {
      "op": "Embedding", 
      "name": "net_10_embedding0_fwd", 
      "attrs": {
        "dtype": "float32", 
        "input_dim": "2", 
        "output_dim": "10", 
        "sparse_grad": "False"
      }, 
      "inputs": [[6, 0, 0], [7, 0, 0]]
    }, 
    {
      "op": "SwapAxis", 
      "name": "net_10_lstm0_swapaxes0", 
      "attrs": {
        "dim1": "0", 
        "dim2": "1"
      }, 
      "inputs": [[8, 0, 0]]
    }, 
    {
      "op": "null", 
      "name": "net_10_lstm0_l0_i2h_weight", 
      "attrs": {
        "__dtype__": "0", 
        "__lr_mult__": "1.0", 
        "__shape__": "(40, 0)", 
        "__storage_type__": "0", 
        "__wd_mult__": "1.0"
      }, 
      "inputs": []
    }, 
    {
      "op": "Reshape", 
      "name": "net_10_lstm0_reshape0", 
      "attrs": {"shape": "-1"}, 
      "inputs": [[10, 0, 0]]
    }, 
    {
      "op": "null", 
      "name": "net_10_lstm0_l0_h2h_weight", 
      "attrs": {
        "__dtype__": "0", 
        "__lr_mult__": "1.0", 
        "__shape__": "(40, 10)", 
        "__storage_type__": "0", 
        "__wd_mult__": "1.0"
      }, 
      "inputs": []
    }, 
    {
      "op": "Reshape", 
      "name": "net_10_lstm0_reshape1", 
      "attrs": {"shape": "-1"}, 
      "inputs": [[12, 0, 0]]
    }, 
    {
      "op": "null", 
      "name": "net_10_lstm0_l0_i2h_bias", 
      "attrs": {
        "__dtype__": "0", 
        "__init__": "zeros", 
        "__lr_mult__": "1.0", 
        "__shape__": "(40,)", 
        "__storage_type__": "0", 
        "__wd_mult__": "1.0"
      }, 
      "inputs": []
    }, 
    {
      "op": "Reshape", 
      "name": "net_10_lstm0_reshape2", 
      "attrs": {"shape": "-1"}, 
      "inputs": [[14, 0, 0]]
    }, 
    {
      "op": "null", 
      "name": "net_10_lstm0_l0_h2h_bias", 
      "attrs": {
        "__dtype__": "0", 
        "__init__": "zeros", 
        "__lr_mult__": "1.0", 
        "__shape__": "(40,)", 
        "__storage_type__": "0", 
        "__wd_mult__": "1.0"
      }, 
      "inputs": []
    }, 
    {
      "op": "Reshape", 
      "name": "net_10_lstm0_reshape3", 
      "attrs": {"shape": "-1"}, 
      "inputs": [[16, 0, 0]]
    }, 
    {
      "op": "_rnn_param_concat", 
      "name": "net_10_lstm0__rnn_param_concat0", 
      "attrs": {
        "dim": "0", 
        "num_args": "4"
      }, 
      "inputs": [[11, 0, 0], [13, 0, 0], [15, 0, 0], [17, 0, 0]]
    }, 
    {
      "op": "null", 
      "name": "data1", 
      "inputs": []
    }, 
    {
      "op": "null", 
      "name": "data2", 
      "inputs": []
    }, 
    {
      "op": "RNN", 
      "name": "net_10_lstm0_rnn0", 
      "attrs": {
        "bidirectional": "False", 
        "lstm_state_clip_max": "None", 
        "lstm_state_clip_min": "None", 
        "lstm_state_clip_nan": "False", 
        "mode": "lstm", 
        "num_layers": "1", 
        "p": "0", 
        "projection_size": "None", 
        "state_outputs": "True", 
        "state_size": "10"
      }, 
      "inputs": [[9, 0, 0], [18, 0, 0], [19, 0, 0], [20, 0, 0]]
    }, 
    {
      "op": "SwapAxis", 
      "name": "net_10_lstm0_swapaxes1", 
      "attrs": {
        "dim1": "0", 
        "dim2": "1"
      }, 
      "inputs": [[21, 0, 0]]
    }
  ], 
  "arg_nodes": [0, 1, 3, 7, 10, 12, 14, 16, 19, 20], 
  "node_row_ptr": [
    0, 
    1, 
    2, 
    3, 
    4, 
    5, 
    6, 
    7, 
    8, 
    9, 
    10, 
    11, 
    12, 
    13, 
    14, 
    15, 
    16, 
    17, 
    18, 
    19, 
    20, 
    21, 
    24, 
    25
  ], 
  "heads": [[22, 0, 0], [21, 1, 0], [21, 2, 0]], 
  "attrs": {"mxnet_version": ["int", 10400]}
}